STGAT/checkpoint/checkpoint9.pth.tar (torch_old, 549109 bytes, 78 tensors)

gatencoder.gat_net.layer_stack.0.w f4 [4, 32, 16]
0	0x3e5c0f28	0.21490157
1	0x3e589bdf	0.2115321
2	0x3e670826	0.22561702
3	0x3dc8daba	0.09807344
4	0x3d758242	0.059938677
5	0xbeca4256	-0.39503735
6	0xbeaa4d81	-0.33262256
7	0x3deb22da	0.11481257
8	0x3e69e46e	0.22841045
9	0xbeb70d47	-0.35752317
10	0xbd08c306	-0.033389114
11	0x3bbc1253	0.005739489
12	0xbe51d989	-0.2049314
13	0xbc825f40	-0.01591456
14	0x3e8b1ea5	0.27171817
15	0xbe851b1b	-0.25997242
16	0x3e048fcc	0.12945479
17	0x3ebc96a5	0.36833683
18	0x3e61d257	0.22052895
19	0x3e0184b5	0.1264828
20	0x3d3c0519	0.0459033
21	0xbe1c7354	-0.15278369
22	0xbec00fdd	-0.37512103
23	0xbe4f41d0	-0.20239949
24	0x3e23dfb0	0.16003299
25	0xbe8aa3c1	-0.2707806
26	0xb99e8af4	-0.00030239637
27	0x3dbc1b83	0.09184935
28	0xbe592397	-0.21204983
29	0xbe2eeed4	-0.17083293
30	0x3e8a1c06	0.26974505
31	0xbeb7ed02	-0.3592301
32	0xbe8d110d	-0.2755207
33	0xbe0c2ae0	-0.1368823
34	0xbeb4b98f	-0.3529782
35	0xbe28a5a7	-0.16469441
36	0x3e40cdb2	0.18828467
37	0x3eb907b2	0.36138684
38	0x3ec2c4e8	0.38040853
39	0x3da32530	0.07966077
40	0xbe27ee89	-0.16399588
41	0x3ec0863a	0.37602407
42	0xbdf80f5c	-0.121123046
43	0xbdfaf6ee	-0.12254129
44	0x3e3a05bd	0.18166251
45	0x3e2ca332	0.16859129
46	0xbeb8d721	-0.3610163
47	0x3e484a72	0.19559649
48	0xbeb51ba8	-0.35372663
49	0xbea3d9eb	-0.32002196
50	0xbe8ecee3	-0.27892217
51	0xbe567a7c	-0.20945162
52	0x3d12acbb	0.03580926
53	0x3ed2eb1c	0.41195
54	0x3eb9ba49	0.36274937
55	0x3d79f832	0.061027713
56	0xbe8e155b	-0.27750668
57	0x3eab484e	0.33453602
58	0xbd8b0bbe	-0.06789349
59	0xbcf649a0	-0.030064404
60	0x3e8bf559	0.27335623
61	0x3e6d917f	0.23200034
62	0xbe785432	-0.24250868
63	0x3e81b118	0.25330424
64	0xbe5e60b3	-0.21716575
65	0xbea8ad65	-0.3294479
66	0xbe513997	-0.20432125
67	0xbe56a723	-0.20962195
68	0x3e267f86	0.16259584
69	0x3e7b3b04	0.24534231
70	0x3e86e7b7	0.2634866
71	0xbc048405	-0.0080881165
72	0xbe799483	-0.24373059
73	0x3e852756	0.26006573
74	0xbdacceb2	-0.084378615
75	0xbcae4728	-0.021274164
76	0x3e84bc56	0.2592494
77	0x3e9c2d0c	0.30503118
78	0xbede4100	-0.43408966
79	0x3e298d9f	0.1655793
80	0xbe310eb7	-0.1729077
81	0xbed37386	-0.41299075
82	0xbe753147	-0.23944579
83	0xbd92af49	-0.07162339
84	0xbdad3ca3	-0.08458831
85	0x3ed52ef0	0.41637373
86	0x3ef41c56	0.4767787
87	0x3e5c3d66	0.21507797
88	0xbe511c61	-0.20420982
89	0x3e8d70f9	0.27625254
90	0xbccb7835	-0.024837593
91	0x3d431506	0.04762747
92	0x3e1cd2c8	0.15314782
93	0x3df8e0e5	0.1215227
94	0xbe2375ec	-0.15962952
95	0x3ead3c35	0.33834997
96	0x3da37f6d	0.07983289
97	0x3bfd08a6	0.0077219782
98	0x3e8d0f00	0.27550507
99	0x3e85daaf	0.26143405
100	0x3e1d1428	0.1533972
101	0xbe6d15a6	-0.2315279
102	0xbe9caddc	-0.30601394
103	0xbea8f1cb	-0.32996973
104	0x3e2e9ecc	0.17052764
105	0xbe848aa6	-0.2588703
106	0xbd2b8f6f	-0.041884836
107	0x3e825fc3	0.25463685
108	0xbe1a3f6c	-0.15063256
109	0xbe17f485	-0.1483937
110	0x3ec29c65	0.38009945
111	0xbd5eede1	-0.054426078
112	0xbe9d23b6	-0.30691308
113	0xbea1c6dc	-0.3159703
114	0xbe83c1cd	-0.25733796
115	0x3eab28bd	0.33429518
116	0x3d79a96d	0.060952593
117	0xbc89b3f9	-0.01680945
118	0x3e1e3814	0.1545108
119	0xbe869948	-0.2628882
120	0x3e1afda7	0.15135823
121	0x3e87aeb4	0.26500475
122	0xbdecfa0d	-0.11571131
123	0x3e01da70	0.12680984
124	0xbdf7c027	-0.12097197
125	0xbdecdee8	-0.115659535
126	0x3e5c76e2	0.21529725
127	0x3ed09de1	0.40745452
128	0xbd56502b	-0.052322548
129	0xbed57c8d	-0.41696587
130	0xbe33e8a9	-0.17569222
131	0xbe613d60	-0.21996069
132	0xbb12f59c	-0.0022424227
133	0x3eb8160d	0.35954323
134	0x3e5eed05	0.21770103
135	0x3e74ec73	0.23918323
136	0xbe1c1f63	-0.15246348
137	0x3e54cff3	0.20782451
138	0x3d8131b0	0.06308305
139	0xbe928a3e	-0.28621095
140	0x3ea755bd	0.326826
141	0x3e813b4a	0.25240546
142	0xbedfee9a	-0.43736726
143	0x3ecbfc3c	0.39840877
144	0x3e181cfc	0.14854807
145	0x3e10e372	0.14149264
146	0x3dffe3ce	0.12494622
147	0x3e9ac712	0.30230004
148	0xbd12492d	-0.035714317
149	0xbe65da00	-0.22446442
150	0xbeba3eca	-0.3637603
151	0xbdb925ec	-0.09040436
152	0xbd2f60d1	-0.04281694
153	0xbda2ce6a	-0.079495266
154	0x3d97acbb	0.074059926
155	0x3e9dc50c	0.30814397
156	0xbe0a4e6a	-0.13506475
157	0xbe8c502f	-0.27404925
158	0x3e84d2b0	0.25941992
159	0xbd57f3d7	-0.05272278
160	0xbe0f6fa5	-0.14007433
161	0xbe3a3233	-0.18183212
162	0xbec0a301	-0.37624362
163	0x3b169532	0.002297711
164	0x3de59fba	0.11212106
165	0x3ee59125	0.448373
166	0x3eb00b51	0.34383634
167	0xbd3b18e0	-0.04567802
168	0xbdfb7392	-0.12277903
169	0x3eba0976	0.36335343
170	0x3d214884	0.039375797
171	0xbe22387f	-0.15841864
172	0x3da9c280	0.08289051
173	0x3dc24922	0.09486605
174	0xbe354acf	-0.17704318
175	0x3e917161	0.28406814
176	0x3eb06e1f	0.34459016
177	0x3e88edd5	0.2674395
178	0x3ed70a64	0.42000115
179	0x3e301b61	0.17197944
180	0xbe467bae	-0.19383118
181	0xbeaeaa4f	-0.3411431
182	0xbe8e5aaa	-0.27803546
183	0xbd7b7025	-0.061386246
184	0x3e531623	0.20613913
185	0xbe3a37a9	-0.18185295
186	0xbd27a59d	-0.040929426
187	0x3d016e91	0.031599585
188	0xbeb77090	-0.35828066
189	0xbe21e4a2	-0.15809873
190	0x3e7595fc	0.23982996
191	0xbec13913	-0.37738857
192	0xbdb8bf0b	-0.090208136
193	0xbdcee482	-0.10102178
194	0x3ea46b0f	0.3211293
195	0x3e45d36d	0.19318934
196	0x3c45687b	0.012048836
197	0xbe4c5983	-0.19956021
198	0xbeb274bc	-0.34854686
199	0xbe4554d4	-0.1927064
200	0xbd35769a	-0.04430256
201	0xbc1ca206	-0.009560114
202	0xbdd34f27	-0.103178315
203	0x3e8e14a5	0.27750126
204	0xbe755416	-0.23957857
205	0xbe7ccde0	-0.2468791
206	0x3e187f0e	0.14892218
207	0xbe200d05	-0.15629967
208	0xbdd0c71e	-0.101942286
209	0x3e060292	0.13086918
210	0x3e95eab9	0.29280642
211	0x3e2a5e82	0.16637614
212	0xbda04883	-0.078263305
213	0xbe747ce5	-0.23875768
214	0xbe8024b6	-0.25028008
215	0xbd7d6a76	-0.061869107
216	0x3e4cfcab	0.2001826
217	0xbea4d8b8	-0.32196593
218	0x3e4503ef	0.19239782
219	0x3e8af6bf	0.27141377
220	0xbec38009	-0.3818362
221	0xbec59fdc	-0.38598526
222	0x3e477c83	0.19481091
223	0xbe194ff4	-0.14971906
224	0x3dd2d15c	0.102938384
225	0x3e153c1a	0.14573708
226	0x3e96f48c	0.2948345
227	0x3e49f60b	0.19722764
228	0x3c933343	0.01796878
229	0xbe82418b	-0.2544063
230	0xbe8d5a03	-0.27607736
231	0xbe64b695	-0.22335275
232	0xbba91ae3	-0.005160676
233	0xbe67a2c3	-0.22620682
234	0xbd66aa8a	-0.056314982
235	0x3eb9c634	0.3628403
236	0xbe825dbf	-0.25462148
237	0xbe4f82a0	-0.20264673
238	0x3e71027f	0.23536108
239	0xbeab9a25	-0.3351604
240	0x3e54a7c2	0.2076712
241	0x3ea6d9f7	0.3258817
242	0x3eda3096	0.42615193
243	0x3e013441	0.1261759
244	0x3c293128	0.010326661
245	0xbe960e16	-0.29307622
246	0xbe243c14	-0.16038543
247	0xbd4fac03	-0.050701153
248	0x3dc06604	0.09394458
249	0xbe1a6ec9	-0.15081324
250	0x3db84e51	0.08999313
251	0x3e87fabc	0.26558483
252	0xbee7c4ef	-0.45267436
253	0xbe984fd5	-0.29748407
254	0x3e5ed180	0.21759605
255	0xbebc16fc	-0.36736286

gatencoder.gat_net.layer_stack.0.a_src f4 [4, 16, 1]
0	0xbf1bc482	-0.6084672
1	0xbf025eed	-0.50926095
2	0xbeebebdb	-0.4607838
3	0x3ec93681	0.39299396
4	0x3ea92fca	0.33044273
5	0xbd00a291	-0.031405035
6	0xbe2e0cf8	-0.16997135
7	0xbf01abf8	-0.5065303
8	0x3ef4e5b7	0.4783151
9	0x3ee4fdde	0.44724935
10	0x3f09006a	0.53516257
11	0x3e7b0bf3	0.24516277
12	0xbd682013	-0.056671213
13	0xbefeb933	-0.4975067
14	0x3e592e07	0.21208964
15	0x3ed03486	0.40665072
16	0x3e869bdb	0.26290783
17	0x3da46313	0.080267094
18	0x3e8af95a	0.27143365
19	0x3ef93633	0.48674163
20	0xbf112811	-0.5670176
21	0x3e94a1dc	0.2902974
22	0xbe85af25	-0.26110187
23	0xbea2d1ce	-0.31800693
24	0xbe7796d8	-0.24178636
25	0xbdd4b8b3	-0.10386791
26	0xbe05a841	-0.13052465
27	0xbf44fbb1	-0.7694655
28	0xbec785a1	-0.38969138
29	0x3f5cd416	0.8626112
30	0xbf166e9b	-0.5876252
31	0x3e015148	0.12628663
32	0x3d914c0f	0.07094585
33	0x3cbfbc9d	0.023405368
34	0xbecccc62	-0.39999682
35	0xbecdf204	-0.40223706
36	0x3f66f27f	0.9021377
37	0x3d4d1ec4	0.05007817
38	0x3d7c13d4	0.061542347
39	0xbf29f758	-0.6639304
40	0xbeb42255	-0.35182443
41	0x3e7d5f6b	0.2474343
42	0xbeb11384	-0.34585202
43	0xbf056f17	-0.52122635
44	0xbe947ce7	-0.29001543
45	0x3e5139f9	0.20432271
46	0xbeaba074	-0.33520854
47	0x3ee7cfe7	0.45275804
48	0x3d76b584	0.0602317
49	0x3f2120fb	0.6294095
50	0xbb326121	-0.0027218538
51	0x3d601302	0.054705627
52	0x3ce9b014	0.028526343
53	0xbf0394ce	-0.5139893
54	0x3e8a0853	0.26959476
55	0xbf03ff37	-0.515613
56	0x3d99f9c8	0.07518345
57	0x3ed1259c	0.40849006
58	0xbd15995f	-0.03652322
59	0x3f13723f	0.575962
60	0xbf15e25e	-0.58548534
61	0xbf00b572	-0.50276864
62	0xbf00756f	-0.5017919
63	0x3f28199b	0.6566407

gatencoder.gat_net.layer_stack.0.a_dst f4 [4, 16, 1]
0	0xbe0143a8	-0.12623465
1	0xbf1be76d	-0.609
2	0xbf801a14	-1.0007958
3	0xbd5aa4e6	-0.053379916
4	0xbe8d88a8	-0.27643323
5	0x3f775eab	0.96628827
6	0x3f2e0fa1	0.679926
7	0x3da3fd3e	0.080072865
8	0x3ee4dc62	0.4469939
9	0x3f3217c4	0.69567513
10	0xbed4d54d	-0.41568986
11	0xbe9dc562	-0.30814654
12	0x3eb67e67	0.35643312
13	0x3f429d5f	0.7602138
14	0xbf03fdb5	-0.51559
15	0x3f204d82	0.6261827
16	0xbdea2062	-0.11431958
17	0xbf21d5d9	-0.6321693
18	0xbf21ad93	-0.6315548
19	0x3f049eeb	0.5180499
20	0xba92c9b3	-0.0011199027
21	0xbe9c57bb	-0.30535683
22	0x3ed4dad9	0.41573218
23	0xbe282c82	-0.16423228
24	0x3f1087b3	0.5645706
25	0xbe1f1704	-0.15536124
26	0xbe83bc25	-0.2572948
27	0x3f28b10d	0.6589516
28	0xbf01bffc	-0.5068357
29	0xbeb2d507	-0.34928152
30	0x3f25c23c	0.64749503
31	0x3ef24063	0.47314748
32	0x3e45f150	0.19330335
33	0xbf0e275c	-0.5552881
34	0xbf75254a	-0.95760024
35	0x3f1c99aa	0.6117197
36	0xbeb0ffc6	-0.3457014
37	0x3f40ab8f	0.7526178
38	0xbec6110c	-0.3868488
39	0x3cbedfc8	0.023300067
40	0x3f09577c	0.53649116
41	0xbf515d11	-0.81782633
42	0xbe2288ca	-0.15872493
43	0xbedca43b	-0.43094048
44	0x3e648362	0.22315744
45	0x3f02a626	0.5103477
46	0x3eb2a86b	0.34894118
47	0xbf784cb6	-0.9699205
48	0x3ec92727	0.39287683
49	0xbf379854	-0.7171681
50	0xbf1a78f9	-0.6034084
51	0x3eef3099	0.46716765
52	0x3f09c8a5	0.53821784
53	0x3f80a4e9	1.0050327
54	0x3f6172b3	0.8806564
55	0x3f24e04b	0.64404744
56	0x3f573daa	0.84078467
57	0xbdd35d0b	-0.10320481
58	0x3f52c816	0.82336557
59	0x3f49c39b	0.78814095
60	0xbe85fdb7	-0.26170132
61	0x3f124cff	0.57148737
62	0x3f73f614	0.9529736
63	0xbec3edd3	-0.38267383

gatencoder.gat_net.layer_stack.0.bias f4 [16]
0	0xbe24c234	-0.16089708
1	0xbeafecbb	-0.343603
2	0xbd9c815d	-0.076418616
3	0x3dc9a5bd	0.09846065
4	0xbe8ca24d	-0.27467576
5	0xbc9ad20a	-0.018898983
6	0x3dd3883e	0.103287205
7	0xbe28a177	-0.16467844
8	0xbe5246ef	-0.20534872
9	0xbd38f815	-0.045158464
10	0x3cd871c1	0.02642143
11	0xbe00744b	-0.12544362
12	0xbe219746	-0.15780362
13	0x3df958e0	0.12175155
14	0xbe8b8398	-0.27248836
15	0x3e28a269	0.16468205

gatencoder.gat_net.layer_stack.1.w f4 [1, 64, 32]
0	0x3d809e36	0.06280176
1	0x3e3c64b9	0.18397798
2	0xbe013362	-0.12617257
3	0x3e8ff984	0.28120053
4	0x3e4ce8a8	0.20010626
5	0xbe333582	-0.1750088
6	0xbd259eee	-0.04043477
7	0x3dcb3743	0.0992265
8	0xbdfd7fed	-0.123779155
9	0xbe4db228	-0.20087492
10	0xbe6a7446	-0.22895917
11	0xbb886eab	-0.0041635833
12	0xbd9de3f9	-0.07709498
13	0x3e51033e	0.20411393
14	0xbd4a9884	-0.049461856
15	0xbe1f623e	-0.1556482
16	0xbe69e610	-0.22841668
17	0xbdb2f53f	-0.08738183
18	0xbdf1ba9c	-0.11803171
19	0xbe98894f	-0.29792258
20	0xbe68c991	-0.22733141
21	0x3e15441a	0.1457676
22	0x3da9b933	0.08287277
23	0x3e1b79c0	0.15183163
24	0xbe828290	-0.25490236
25	0x3debabf6	0.11507408
26	0xbe371fce	-0.17883226
27	0xbd81f877	-0.06346219
28	0xbe16d95f	-0.14731358
29	0x3e365de4	0.17809254
30	0x3e8944e2	0.26810366
31	0x3e0d9d0d	0.13829441
32	0xbd9ac526	-0.07557134
33	0xbe32c090	-0.1745627
34	0xbd7257ee	-0.059165888
35	0xbea42bb9	-0.32064608
36	0xbe2c18a9	-0.16806282
37	0x3e07850b	0.13234346
38	0x3dfef297	0.12448614
39	0xbd01928c	-0.0316339
40	0x3e27a3d8	0.16371095
41	0x3eb5e6d3	0.35527667
42	0x3e9867f9	0.29766825
43	0xbd3a0b81	-0.045421127
44	0x3cf40ebc	0.029792182
45	0xbe7e3778	-0.24825847
46	0x3b4a44b3	0.0030863702
47	0xbc60db7c	-0.013724204
48	0xbe5b6f1b	-0.21429102
49	0xbe36d767	-0.17855607
50	0x3d7abfad	0.061217953
51	0x3dd8a3ff	0.10578155
52	0x3e480d83	0.19536404
53	0x3c669fc1	0.014076174
54	0xbd49cfc1	-0.049270395
55	0x3d35f0d1	0.044419114
56	0x3eb46224	0.35231125
57	0xbd5b77ac	-0.053580925
58	0x3ced4b96	0.028966706
59	0xbc68596a	-0.014181474
60	0x3e605977	0.21909128
61	0xbeadc33e	-0.3393802
62	0xbe28b7ab	-0.16476314
63	0xbe1ee502	-0.15517047
64	0x3cb02964	0.021504112
65	0xbea9107c	-0.3302039
66	0xbc113c21	-0.0088644335
67	0xbe05596b	-0.13022391
68	0xbe219810	-0.15780663
69	0xbdb6a5b9	-0.08918328
70	0xbc287a2b	-0.010283033
71	0xbe5fc389	-0.21851934
72	0x3e2b0d0a	0.16704193
73	0x3eb22225	0.34791675
74	0x3e3210aa	0.1738917
75	0x3cda58e2	0.02665371
76	0x3e2d7597	0.16939388
77	0xbdbcce32	-0.09219016
78	0x3e25b955	0.1618398
79	0x3d17d93d	0.03707241
80	0x3cc72aae	0.024312343
81	0x3c57ab40	0.013163388
82	0x3dbe2ba3	0.09285667
83	0x3e00f8d8	0.12594926
84	0x3db26032	0.08709754
85	0xbdaa7724	-0.083235055
86	0xbe4fe358	-0.20301569
87	0x3d68341a	0.056690313
88	0x3e74601b	0.23864786
89	0xbdcba021	-0.099426515
90	0x3ddc0079	0.10742278
91	0xbe1cde2f	-0.15319131
92	0xbc985929	-0.018597202
93	0xbe283a03	-0.1642838
94	0xbe239dca	-0.1597816
95	0x3d42afc1	0.047530893
96	0x3dcabcb5	0.09899274
97	0x3ddda333	0.108221434
98	0xbe84c5af	-0.2593207
99	0xbc4ba0c3	-0.012428465
100	0x3e485898	0.19565046
101	0x3e31d941	0.17368032
102	0x3ea8f128	0.32996488
103	0x3e71c687	0.23610888
104	0x3eca4502	0.39505774
105	0x3dc66bd7	0.096885376
106	0x3e0e7db9	0.13915147
107	0xbbbb0ad9	-0.0057080803
108	0xbe3eec9a	-0.18644944
109	0x3dbe7a7f	0.09300708
110	0xbe4f5b50	-0.20249677
111	0xbec7417b	-0.38917145
112	0xbe92c491	-0.28665593
113	0xbe9ec5a9	-0.31010178
114	0xbe2a8841	-0.16653539
115	0xbe3af845	-0.1825877
116	0xbbadaa13	-0.0052998154
117	0x3e4526b9	0.19253053
118	0xbd495d66	-0.049161337
119	0x3e5352ac	0.20637006
120	0xbd5a1350	-0.053241074
121	0x3e6ddd57	0.23228966
122	0xbe8d21b4	-0.27564776
123	0xbe058bba	-0.13041583
124	0x3d940770	0.07227981
125	0xbd00d309	-0.03145126
126	0x3e15b362	0.1461921
127	0x3e0ea6df	0.13930844
128	0x3db5d8fb	0.08879276
129	0x3e015d34	0.1263321
130	0x3e6703b7	0.22560011
131	0x3e13864c	0.14406699
132	0xbd17d10e	-0.037064604
133	0x3c76d30e	0.015064968
134	0xbd72bb3d	-0.059260596
135	0xbb90f601	-0.004423857
136	0xbdede16a	-0.1161526
137	0xbe07ac2c	-0.13249272
138	0xbd5b7629	-0.053579483
139	0xbd865e2c	-0.065609306
140	0xbe180a27	-0.14847623
141	0x3e4c550e	0.19954321
142	0xbe0008a9	-0.12503304
143	0x3d9383d9	0.07202882
144	0x3e85b092	0.26111275
145	0x3e5c49ee	0.21512577
146	0x3d90efee	0.07077013
147	0xbca34f91	-0.019935401
148	0xbe16f73e	-0.14742753
149	0xbe3fb0ab	-0.18719737
150	0xbc099d0b	-0.008399258
151	0xbdb2eb9e	-0.08736347
152	0xbe7e6720	-0.24844027
153	0x3cd1ae2c	0.025595747
154	0xbc9553ac	-0.018228374
155	0x3d0a51ad	0.0337693
156	0xbe25c025	-0.16186579
157	0x3e4e32b4	0.20136529
158	0x3e6c0385	0.23048218
159	0x3d0b2d36	0.033978663
160	0x3c33a2c8	0.010964103
161	0x3eb11a0c	0.34590185
162	0xbd482039	-0.048858855
163	0x3e3dc684	0.18532759
164	0x3e869f37	0.26293346
165	0x3e260f63	0.16216807
166	0x3d19047e	0.0373578
167	0x3e1ea16c	0.15491265
168	0xbe217161	-0.15765907
169	0xbe140eab	-0.1445872
170	0xbe21c05b	-0.15796034
171	0xbdb2e208	-0.08734518
172	0xbe1f5a44	-0.15561777
173	0x3e0fcc5f	0.14042805
174	0xbde40564	-0.11133841
175	0x3cf04581	0.029330017
176	0xbcf32349	-0.029679911
177	0x3d9c35eb	0.076274715
178	0x3b89bc17	0.0042033303
179	0xbe290683	-0.1650639
180	0xbe1d8055	-0.15380986
181	0x3d25f68a	0.04051832
182	0x3dc32173	0.09527864
183	0xbd94b27e	-0.07260607
184	0xbe50164a	-0.20321003
185	0x3e21607f	0.15759467
186	0xbd7be651	-0.061498944
187	0x3e2173d9	0.15766849
188	0x3d110394	0.035403803
189	0x3e210916	0.15726122
190	0x3e444aba	0.19169131
191	0x3d689a2a	0.056787647
192	0x3dff90e5	0.12478808
193	0x3e494646	0.19655713
194	0x3e22c0b4	0.15893823
195	0x3e8e1b3d	0.27755156
196	0x3d98e3a3	0.07465293
197	0xbcd09e62	-0.025466148
198	0xbe3b0664	-0.18264157
199	0x3d3f66d7	0.046728935
200	0xbe31f207	-0.17377482
201	0xbe76b38f	-0.24091934
202	0xbe76db63	-0.24107127
203	0x3de821cc	0.11334571
204	0x3d777129	0.060410652
205	0x3e38e348	0.18055451
206	0x3ac0bd15	0.0014704788
207	0x3dc63738	0.09678501
208	0x3e80b4b4	0.25137866
209	0x3e03ae7c	0.1285953
210	0x3c8e6528	0.01738222
211	0xbe10e212	-0.14148739
212	0xbd97bdf2	-0.07409276
213	0xbd636993	-0.055520605
214	0xbcddc4ae	-0.027071323
215	0xbe157232	-0.14594343
216	0xbea7ca81	-0.32771686
217	0xbcf2e4b4	-0.02965007
218	0xbd7a32e0	-0.061083674
219	0x3d67b8fb	0.056572895
220	0xbe2761c0	-0.16345882
221	0x3ec98f6b	0.39367232
222	0x3d8478e8	0.064683735
223	0x3c176727	0.009240902
224	0xbdc77468	-0.097389996
225	0xbe31d030	-0.17364573
226	0xbd9dff70	-0.077147365
227	0xbe8671fe	-0.26258844
228	0xbe1384cb	-0.14406125
229	0x3e6c873b	0.23098461
230	0x3e1a1e1b	0.15050547
231	0x3dabfb43	0.08397534
232	0x3e5520e9	0.20813335
233	0x3e9bddb1	0.30442575
234	0x3e714483	0.23561291
235	0x3d5459fe	0.051843636
236	0xbcc28ebb	-0.0237497
237	0xbe6a682b	-0.228913
238	0x3dad9ef5	0.08477584
239	0xbd0aa645	-0.033849973
240	0xbe23f985	-0.16013153
241	0xbdbc4a1c	-0.09193823
242	0xbd5d5956	-0.054040276
243	0x3d7fb2c8	0.06242636
244	0x3e121c67	0.14268647
245	0xbd57288a	-0.052528895
246	0xbd039717	-0.032126512
247	0x3e092c42	0.1339579
248	0x3e99dc8f	0.30051085
249	0xbc30e989	-0.010797867
250	0x3cb9c6fd	0.022677893
251	0x3de5b280	0.11215687
252	0x3dd29051	0.102814324
253	0xbeaa941b	-0.3331612
254	0xbd3ad527	-0.045613434
255	0xbd90fa40	-0.070789814

gatencoder.gat_net.layer_stack.1.a_src f4 [1, 32, 1]
0	0x3f6ca26b	0.9243533
1	0x3ecf307b	0.40466675
2	0xbebca647	-0.3684561
3	0x3ebb95c6	0.36637706
4	0x3f23aebd	0.63938504
5	0xbcc48b95	-0.02399234
6	0xbdd76a0b	-0.10518273
7	0xbe440637	-0.19142996
8	0xbf0bee44	-0.5466044
9	0xbeeb38ba	-0.45941716
10	0xbf41387d	-0.7547682
11	0x3e29fd3a	0.16600505
12	0xbd2f6520	-0.04282105
13	0x3efa1ba7	0.48849222
14	0x3dd3b3d9	0.103370376
15	0x3e8d4df7	0.27598545
16	0x3f38759f	0.72054476
17	0xbda35317	-0.079748325
18	0xbd7567e7	-0.059913542
19	0xbf01b1af	-0.5066175
20	0xbe3055cb	-0.17220227
21	0x3f05178c	0.51989055
22	0xbe24eebe	-0.16106698
23	0x3eec94e6	0.4620735
24	0xbf10613d	-0.56398374
25	0xbefcfaa3	-0.4940997
26	0xbf0a71c6	-0.54079854
27	0xbc887785	-0.016658554
28	0xbe64ff63	-0.22363047
29	0x3eea1639	0.4572008
30	0x3dc6a96f	0.09700286
31	0x3f065fe2	0.52490056

gatencoder.gat_net.layer_stack.1.a_dst f4 [1, 32, 1]
0	0x3e8ebc3c	0.27877986
1	0x3f689ada	0.90861285
2	0xbe354934	-0.17703706
3	0x3dd3c0c1	0.10339499
4	0x3f14a8ed	0.5807026
5	0x3ed87250	0.42274714
6	0x3cf083d6	0.02935974
7	0x3e925095	0.28577104
8	0xbed9d0cc	-0.42542112
9	0xbea86165	-0.32886806
10	0xbed8a414	-0.42312682
11	0x3db075cb	0.08616217
12	0xbeedc259	-0.46437338
13	0x3e542b24	0.20719582
14	0xbee69db7	-0.45042202
15	0xbe28971c	-0.16463894
16	0x3df54bd1	0.119773515
17	0x3ec0df40	0.37670326
18	0xbeb98a65	-0.362384
19	0x3e181a85	0.14853866
20	0xbe9d5f7c	-0.3073691
21	0x3dd189f8	0.102313936
22	0x3eabe046	0.33569545
23	0xbdc4cc03	-0.09609225
24	0x3e964639	0.2935045
25	0x3da3c457	0.07996433
26	0x3e35a5d3	0.17739038
27	0x3eb75a8c	0.3581127
28	0x3e908a26	0.282304
29	0x3e2d9d91	0.16954638
30	0x3ecd7c18	0.4013374
31	0xbf1509a0	-0.5821781

gatencoder.gat_net.layer_stack.1.bias f4 [32]
0	0xbdf86a50	-0.121296525
1	0xbe398820	-0.18118334
2	0x3d077258	0.03306803
3	0xbe38f0e7	-0.18060647
4	0xbdc512a6	-0.096226975
5	0x3e0626b4	0.13100702
6	0x3e46d906	0.19418725
7	0x3e1f94f4	0.15584165
8	0x3e8a5d13	0.27024135
9	0x3e8e8474	0.2783543
10	0x3e1644c9	0.14674677
11	0xbd59f5c1	-0.053212885
12	0xbd884f98	-0.06655806
13	0xbe95cc47	-0.29257414
14	0xbd12ed6f	-0.035870966
15	0xbe921c0c	-0.28537023
16	0xbe3aa97e	-0.18228719
17	0xbe61b990	-0.22043443
18	0x3d9e3d0f	0.0772649
19	0x3e719774	0.23592931
20	0x3e5bb640	0.21456242
21	0x3db6d9f4	0.0892829
22	0x3e04df27	0.12975751
23	0xbda7c1e0	-0.081912756
24	0x3ee87c40	0.45407295
25	0x3e131958	0.14365137
26	0xbdaf976a	-0.08573802
27	0x3ebb5484	0.36587918
28	0x3d619e0b	0.055082362
29	0xbe908165	-0.2822372
30	0xbdeebef8	-0.11657518
31	0x3c3b34a6	0.011426127

traj_lstm_model.weight_ih f4 [128, 2]
0	0xbfc47974	-1.5349565
1	0xbfb3f5c0	-1.4059372
2	0x4002712b	2.0381572
3	0x404ac05f	3.1679914
4	0xc00b4da4	-2.1766138
5	0xc0369ab1	-2.8531916
6	0x40b46f65	5.638598
7	0x3f86fc6b	1.0545782
8	0x3e33c6f0	0.17556357
9	0x3ee0272a	0.4377988
10	0xbff0491b	-1.877231
11	0x3d5f1d06	0.05447104
12	0x3ff72236	1.9307315
13	0xbfd4b865	-1.6618773
14	0x3f9a55f1	1.2057477
15	0xbded9bbd	-0.1160197
16	0xbf6a7d12	-0.9159709
17	0x3fa35226	1.2759445
18	0x40b1a44e	5.5513067
19	0xc0396f82	-2.897431
20	0xc036b867	-2.855005
21	0xbf84be5d	-1.0370594
22	0xc04960ea	-3.1465402
23	0xbf7109e2	-0.94155705
24	0x3fc927e2	1.5715296
25	0xbf92a007	-1.1455086
26	0x3f9af738	1.2106695
27	0xbfb75fe3	-1.4326137
28	0x3fd0c41a	1.6309845
29	0xbf8f7ce2	-1.1209986
30	0x407c500a	3.9423852
31	0xbe7e71e3	-0.24848132
32	0x405a36ca	3.409594
33	0xc038fff3	-2.890622
34	0xc0496d7d	-3.1473076
35	0xbf390bf2	-0.7228385
36	0xbd2cf7e3	-0.04222859
37	0xbec4550d	-0.3834614
38	0x40216aee	2.5221515
39	0xbfe263dd	-1.7686726
40	0xc020e4b3	-2.5139587
41	0xbf8a54ed	-1.0807167
42	0xbfe85e31	-1.8153745
43	0x3fcab219	1.5835601
44	0x3fce656b	1.61247
45	0x402cecbc	2.7019491
46	0x3fcfccbf	1.6234359
47	0xc03c02e0	-2.9376755
48	0xbfb44f57	-1.4086713
49	0xbf1ad626	-0.60483015
50	0x406cb3e9	3.6984808
51	0xbf1c5b20	-0.61076546
52	0x40176f60	2.3661728
53	0x404277e1	3.0385668
54	0x3fd9638e	1.6983507
55	0xbdfb405f	-0.12268137
56	0x3eabfb1a	0.33590013
57	0x3ec2d43d	0.3805255
58	0x3f739f90	0.9516535
59	0xc002c36b	-2.0431774
60	0x40611e80	3.5174866
61	0xc03b33ec	-2.925044
62	0x40309dcb	2.759631
63	0x4004f05d	2.0771706
64	0xbf12189a	-0.5706879
65	0xbc5807c0	-0.0131854415
66	0x3fccc2ab	1.5996908
67	0x4088d1fd	4.2756333
68	0xbfc1d8d6	-1.5144298
69	0xbf9fbcec	-1.2479529
70	0x4002418c	2.0352507
71	0x3f99260e	1.1964738
72	0x3de9b33f	0.114111416
73	0x3f1279a2	0.57216847
74	0xbf88ee52	-1.069773
75	0x3ee96f36	0.4559266
76	0x3f84cf5f	1.0375785
77	0xbf4f5a6d	-0.80997354
78	0x3ff3c2d1	1.9043828
79	0x3e09c46e	0.13453838
80	0x3e2de41d	0.1698155
81	0x3e77b9aa	0.24191919
82	0x3fccd8e2	1.6003687
83	0xbfe76c28	-1.8079882
84	0xbfbee6f9	-1.4914237
85	0xbe27089b	-0.16311876
86	0xc0406a7a	-3.0064988
87	0xbee430ca	-0.44568473
88	0x3f97c2a9	1.185628
89	0xbf07e7f7	-0.53088325
90	0x3f954b32	1.1663573
91	0xbf0bd756	-0.5462545
92	0x3f6e4348	0.93071413
93	0xbef6930c	-0.48159063
94	0x4016cc51	2.3562205
95	0xbefeda0c	-0.49775732
96	0x3fa2a8ca	1.270776
97	0xbf1d2493	-0.6138393
98	0xc0fcc458	-7.8989677
99	0x40009715	2.0092213
100	0x3d8d3ea0	0.068967104
101	0xbf9e1da8	-1.23528
102	0x3fb7fbb6	1.4373691
103	0xbe8a1841	-0.2697163
104	0xbfa8f2d7	-1.3199109
105	0xbe72cc92	-0.2371085
106	0xbf740758	-0.95323706
107	0x3f78809f	0.9707126
108	0x3f7f3cd0	0.9970217
109	0x3fc66560	1.5499687
110	0xbe8d131a	-0.27553636
111	0xbf65e337	-0.8979983
112	0xbfe8cfd2	-1.8188422
113	0xbf150d06	-0.58223
114	0x401c2c8c	2.440219
115	0xbe9449d5	-0.2896258
116	0x400b2caa	2.174601
117	0x40440bfd	3.0632317
118	0x3ff1c640	1.8888626
119	0x3efa2e17	0.4886329
120	0x3e070f6b	0.13189475
121	0x3e933907	0.28754446
122	0x3fb28743	1.3947529
123	0xc003a628	-2.0570164
124	0x402cc2a2	2.6993794
125	0xc00269e1	-2.0377123
126	0x3f42eef2	0.7614585
127	0x3f97daf2	1.1863692
128	0xbf8e02b0	-1.109457
129	0xbf020a75	-0.50797206
130	0xc02f05b8	-2.734724
131	0xc0845560	-4.1354218
132	0x400469cc	2.0689573
133	0x40056335	2.08418
134	0x4088248d	4.254462
135	0x3f983cc4	1.1893544
136	0x3f8052d9	1.0025283
137	0x40098bdb	2.149161
138	0x402285aa	2.5394082
139	0x3e1bc8ae	0.15213272
140	0x3f9abe4e	1.2089326
141	0xbfa4bcb7	-1.2870091
142	0x3ff798a8	1.9343462
143	0xbca07716	-0.019588035
144	0xc0517b32	-3.2731442
145	0x3fe08457	1.7540387
146	0x404563b6	3.0842109
147	0xc023f826	-2.5620208
148	0x4000d225	2.0128262
149	0x3ecc3a74	0.39888346
150	0xc00ee74b	-2.232867
151	0xbfbc9d10	-1.4735432
152	0x3fb89ee8	1.4423494
153	0xbf217b84	-0.63079095
154	0x3fb82741	1.4386979
155	0xbf647eef	-0.89256185
156	0x3f6dcd98	0.92891836
157	0xbf7a8de5	-0.97872764
158	0x3fe47310	1.7847614
159	0xbf59c747	-0.850697
160	0xbf9bc279	-1.2168723
161	0x3fa5aa97	1.2942685
162	0xc096d796	-4.7138166
163	0xbec034f0	-0.37540388
164	0x3f9f3825	1.2439009
165	0xbf948e71	-1.160597
166	0x401d1e5c	2.454978
167	0xbf5a76ba	-0.8533741
168	0xbfbae3dd	-1.4600788
169	0xbf303f9f	-0.6884708
170	0x3f12233c	0.57085013
171	0xbfc28d1d	-1.5199314
172	0x3fa3f5d0	1.2809391
173	0x3fffd456	1.9986675
174	0xbf4effbe	-0.8085898
175	0xc021f003	-2.5302742
176	0x3fd3a819	1.6535674
177	0x3f90e91a	1.1321137
178	0xbfbda7f4	-1.481688
179	0x3eec05e1	0.46098235
180	0x40525a43	3.2867591
181	0x4083eff2	4.12304
182	0x3fb9931f	1.4498023
183	0xbf3017f6	-0.6878656
184	0xbf81c802	-1.0139163
185	0xbef680d6	-0.4814517
186	0xc00e4ace	-2.2233157
187	0x40a9a522	5.301408
188	0xc06d0730	-3.7035637
189	0x4003f8a7	2.0620515
190	0x403c57ef	2.942867
191	0x3f6b72de	0.9197215
192	0xc0248bf2	-2.5710416
193	0xc0193b97	-2.394262
194	0x4059cc8d	3.4031098
195	0x4095e273	4.6838927
196	0xc08d3b66	-4.413501
197	0xc088f6a3	-4.280107
198	0x40b7cf40	5.744049
199	0x402747b2	2.613751
200	0x3f8c0a77	1.0940694
201	0x3f8de72f	1.1086177
202	0xc0410ed9	-3.0165312
203	0xbce7553f	-0.02823889
204	0x40422c63	3.0339592
205	0xc01f447c	-2.488555
206	0x4001455f	2.019859
207	0x3e27947a	0.16365233
208	0xbf5793c6	-0.8420986
209	0x3f944840	1.1584549
210	0x40dd1a7e	6.909484
211	0xc0a1091e	-5.032363
212	0xc0a14c27	-5.040546
213	0xc040de4e	-3.0135684
214	0xc09bffde	-4.874984
215	0xbfa7cff4	-1.3110337
216	0x400c0155	2.1875813
217	0xbfec4bac	-1.8460593
218	0x40039b32	2.0563474
219	0xc0243df3	-2.566281
220	0x40067b56	2.1012778
221	0xbfda3a32	-1.704901
222	0x4086c94e	4.2120733
223	0xbef5e5ad	-0.4802679
224	0x40ac3a6f	5.382133
225	0xc091afc5	-4.5527062
226	0xc0a43902	-5.131959
227	0xc01c8b68	-2.4460087
228	0x3e45c043	0.19311623
229	0xbf2d5316	-0.67704904
230	0x40876ade	4.2317953
231	0xc0336c8f	-2.803501
232	0xc0897a22	-4.296159
233	0xc0595fd4	-3.396474
234	0xbfc8f2a5	-1.5699049
235	0x3fe25479	1.7682029
236	0x4035d0cd	2.8408692
237	0x408b869a	4.360181
238	0xbeab7392	-0.3348661
239	0xc07b54ea	-3.9270577
240	0xc0178e7b	-2.3680713
241	0xbf97f934	-1.1872926
242	0x40759d7f	3.8377378
243	0xbe535b31	-0.20640256
244	0x40700841	3.7505038
245	0x408b46f3	4.352411
246	0x400b6a40	2.17836
247	0x3cb8f69a	0.022578526
248	0x3f8ec5d4	1.1154122
249	0x3f0795c2	0.5296289
250	0x40020fb7	2.0322092
251	0xc04297b4	-3.0405092
252	0x40ab0dfd	5.3454576
253	0xc09b4833	-4.8525634
254	0x40959df4	4.6755314
255	0x4089e341	4.308991

traj_lstm_model.weight_hh f4 [128, 32]
0	0xbd422d6b	-0.047406595
1	0xbd83ecff	-0.06441688
2	0x3f2ec927	0.68275684
3	0x3db23c13	0.087028645
4	0xbe88f60f	-0.26750228
5	0x3f31fd94	0.69527555
6	0xbe894be7	-0.2681572
7	0xbf3eff4f	-0.7460832
8	0x3f625dea	0.8842455
9	0xbf8661c4	-1.0498586
10	0x3d2d1d56	0.042264305
11	0x3f4f2a55	0.8092397
12	0x3d242e06	0.040082954
13	0xbe3cf328	-0.18452132
14	0x3ee91242	0.45521742
15	0xbee7fa03	-0.4530793
16	0x3e2d2f20	0.16912508
17	0xbe1eeb25	-0.15519388
18	0x3d796f2f	0.06089705
19	0xbef8288d	-0.48468438
20	0xbe35affb	-0.17742912
21	0xbd2f55e9	-0.04280654
22	0x3f1a9a5c	0.60391784
23	0xbe8f8bd2	-0.28036362
24	0xbe90861a	-0.2822731
25	0x3f2376ee	0.6385335
26	0xbf1b9dfc	-0.6078794
27	0x3e45b364	0.19306713
28	0xbe81dedd	-0.25365344
29	0x3ee46676	0.44609421
30	0x3eb924f4	0.36161005
31	0xbd01ad65	-0.031659503
32	0xbea24ff7	-0.31701633
33	0x3e047747	0.12936126
34	0xbf15d249	-0.58523995
35	0xbe1cf33a	-0.15327159
36	0xbd194c6d	-0.0374264
37	0xbf14c7e8	-0.5811753
38	0xbe73c283	-0.23804669
39	0x3e09df7e	0.13464162
40	0xbe85cf38	-0.26134658
41	0xbeb59c61	-0.3547087
42	0xbeb5c0cc	-0.35498655
43	0x3e3f3f36	0.18676457
44	0x3e8f7961	0.28022292
45	0x3ea7ce77	0.32774708
46	0x3e5fa9c5	0.21842106
47	0x3f1205c0	0.57040024
48	0x3ead601a	0.33862382
49	0x3e7b8080	0.24560738
50	0x3f5797bf	0.8421592
51	0x3e9fd1d7	0.31214783
52	0xbe6648d2	-0.22488716
53	0xbded35d6	-0.11582534
54	0x3f15f1ab	0.5857188
55	0x3e8b34fa	0.27188855
56	0x3e063e16	0.13109621
57	0xbf1a1df7	-0.6020197
58	0x3e362543	0.17787652
59	0x3ef4844b	0.47757182
60	0xbe883d9d	-0.26609507
61	0xbdf8148a	-0.121132925
62	0x3dbc2f9d	0.09188769
63	0x3e0289c8	0.12747872
64	0x3f349230	0.70535564
65	0xbdfbb2b2	-0.12289943
66	0xbf10b920	-0.5653248
67	0x3e1a4eb5	0.15069087
68	0xbdae10e3	-0.08499315
69	0x3e8986dc	0.26860702
70	0xbe89bfbf	-0.26904103
71	0xbef69a2a	-0.48164493
72	0x3efa1025	0.48840442
73	0xbea61a17	-0.3244178
74	0xbf559799	-0.83434445
75	0x3f7fc8d8	0.9991584
76	0x3e533150	0.2062428
77	0x3ded641f	0.11591362
78	0x3f7e5062	0.99341404
79	0x3d8a041f	0.06739067
80	0x3e2cd89f	0.1687951
81	0x3ee61833	0.44940338
82	0xbe02de0b	-0.12780015
83	0xbef715f8	-0.48258948
84	0x3e8387a2	0.25689417
85	0xbe9b4398	-0.30325007
86	0x3f78357a	0.969566
87	0x3ed2d79c	0.41180122
88	0xbe6a8dad	-0.22905608
89	0xbecf68ad	-0.4050955
90	0xbf47a61e	-0.7798785
91	0x3ef5fbd1	0.48043683
92	0xbe745bd3	-0.23863153
93	0xbdd804fe	-0.10547827
94	0x3e3cd04d	0.18438835
95	0xbee3f559	-0.44523123
96	0x3f00ba20	0.50284004
97	0x3efc66c8	0.49297166
98	0xbcdd2001	-0.0269928
99	0xbe8813c4	-0.2657758
100	0xbe27c709	-0.1638452
101	0xbf0aadc3	-0.5417139
102	0xbee67a70	-0.45015287
103	0xbf009d04	-0.50239587
104	0x3e599911	0.21249796
105	0xbe4992df	-0.19684933
106	0xbe0a4b3b	-0.1350526
107	0xbe89b31e	-0.26894468
108	0x3e8f8c32	0.28036648
109	0x3e34ee97	0.1766914
110	0xbe84eff0	-0.25964308
111	0xbe927618	-0.28605723
112	0x3d47e5ba	0.04880307
113	0x3ef6897a	0.4815176
114	0xbec493eb	-0.38394102
115	0x3c6d24bb	0.014474089
116	0xbf0bd019	-0.54614407
117	0xbf728b32	-0.94743645
118	0xbef7caa5	-0.48396793
119	0x3e53f639	0.20699395
120	0x3f25f8dd	0.6483286
121	0x3e585fa1	0.2113023
122	0xbea09fb6	-0.3137185
123	0x3ed56fc4	0.41686833
124	0x3f6d3642	0.92660916
125	0xbde2b418	-0.110695064
126	0x3da2da33	0.079517744
127	0xbd7eb690	-0.062185824
128	0x3f169ad9	0.5883003
129	0x3f24d3b7	0.6438555
130	0xbc2473ad	-0.010037345
131	0xbe41e20e	-0.1893389
132	0xbeb612df	-0.35561273
133	0xbe54c251	-0.20777251
134	0xbdb25115	-0.087068714
135	0x3e481741	0.1954012
136	0x3f4c33b5	0.797664
137	0xbf851998	-1.0398436
138	0x3e83a9b7	0.2571542
139	0x3eeb9321	0.46010688
140	0xbef0b9bf	-0.47016713
141	0x3e474a15	0.19461854
142	0xbed761de	-0.42066854
143	0xbdaff7f3	-0.085922144
144	0x3ea3ad49	0.31968144
145	0xbf15de6e	-0.58542526
146	0xbdec2637	-0.115307264
147	0xbea82788	-0.3284266
148	0x3ef053ac	0.46938837
149	0xbe96f244	-0.2948171
150	0xbf510451	-0.8164721
151	0x3ed2e27b	0.41188416
152	0xbf4917e6	-0.7855209
153	0x3f592906	0.8482822
154	0xbeb5c1fd	-0.35499564
155	0x3ead3d4e	0.33835834
156	0xbfa78d8f	-1.3090075
157	0x3e805b49	0.25069645
158	0x3e56608e	0.2093527
159	0xbeadf14d	-0.3397316
160	0x3f0ffc4a	0.5624434
161	0xbd285983	-0.04110099
162	0x3e23bbd8	0.15989625
163	0xbc06e028	-0.008232154
164	0x3e79c615	0.24391969
165	0x3e13cb73	0.14433078
166	0xbf31890b	-0.69349736
167	0xbe84712d	-0.25867596
168	0x3ed8ca1e	0.42341703
169	0x3ea06dd9	0.31333807
170	0x3e2c28ab	0.16812389
171	0x3e05879f	0.13040017
172	0x3f0478d4	0.5174687
173	0xbeb33763	-0.35003194
174	0xbed2b8cf	-0.41156623
175	0xbf04bb84	-0.51848626
176	0x3e577b21	0.21043064
177	0xbde25e80	-0.11053181
178	0xbea3a554	-0.31962073
179	0xbeab2d51	-0.3343301
180	0x3e6dc533	0.23219757
181	0x3c7b6204	0.015343193
182	0xbe79e722	-0.24404576
183	0xbcc4f5c8	-0.024042979
184	0xbca6a787	-0.020343555
185	0xbe43ff0d	-0.19140263
186	0x3c8d4c1d	0.017248208
187	0xbe49fa60	-0.19724417
188	0x3edb2935	0.42804876
189	0x3f49eeea	0.7888018
190	0x3e07f5b1	0.13277318
191	0x3e0e3719	0.13888206
192	0xbdab06af	-0.08350884
193	0xbdceaa16	-0.10091035
194	0x3d8e0693	0.06934848
195	0x3e7925d0	0.2433083
196	0xbd13d6c9	-0.036093507
197	0x3e8e6cc1	0.27817348
198	0x3bc701c3	0.006073208
199	0xbe872e05	-0.26402298
200	0x3ebf1a0a	0.37324554
201	0x3e3f48f3	0.18680172
202	0x3dcd9a32	0.10039176
203	0x3f419931	0.75624377
204	0xbe799b98	-0.2437576
205	0xbe955bde	-0.29171652
206	0x3f127192	0.57204545
207	0xbed52be9	-0.41635063
208	0x3d987754	0.07444635
209	0xbed16d08	-0.40903497
210	0xbeb6a89b	-0.3567551
211	0x3ea90087	0.33008215
212	0x3dc972f4	0.09836379
213	0xbe4a1ce1	-0.19737579
214	0x3df1f30b	0.11813935
215	0xbe40c69c	-0.18825763
216	0x3c6d8e7f	0.014499306
217	0x3dbcbbed	0.092155315
218	0x3e846fc2	0.25866514
219	0x3e77262f	0.2413566
220	0xbe8db21b	-0.27674946
221	0x3e747421	0.23872425
222	0x3debc9a8	0.11513072
223	0xbefe41c8	-0.49659562
224	0x3e2d7165	0.16937788
225	0xb9d58975	-0.0004072894
226	0x3eefb290	0.4681592
227	0x3e1b8209	0.15186323
228	0x3f0c501f	0.54809755
229	0xbcf041e4	-0.029328294
230	0xbe396b77	-0.18107401
231	0xbe2d8f11	-0.16949107
232	0x3e00d225	0.12580164
233	0xbd7d0844	-0.06177546
234	0x3ebfd5b9	0.37467745
235	0xbfa92d79	-1.3217002
236	0xbe57220a	-0.21009079
237	0x3cf8e42a	0.030382235
238	0x3df29fd3	0.1184689
239	0xbf2e86d7	-0.681745
240	0xbe8cef3b	-0.27526268
241	0xbf5d25b1	-0.8638564
242	0xb9ef3897	-0.00045627795
243	0x3d840f9b	0.06448289
244	0xbe7cdf6d	-0.24694605
245	0xbd0458fa	-0.032311417
246	0x3e59e4ac	0.21278638
247	0xbe5a2aff	-0.21305464
248	0x3e919e57	0.28441116
249	0x3da1fda0	0.07909703
250	0x3f141ce8	0.5785661
251	0xbf0ef0d7	-0.5583624
252	0x3f6ca86d	0.924445
253	0x3e98cefa	0.2984541
254	0x3e0171af	0.12641023
255	0x3ec16395	0.37771288

traj_lstm_model.bias_ih f4 [128]
0	0x3cd273c9	0.025689976
1	0x3f89fb88	1.0779886
2	0x3f8abd1e	1.0838964
3	0x3f4efaff	0.8085174
4	0xbeb46a90	-0.3523755
5	0x3f4d9e7c	0.8031995
6	0xbecb3a38	-0.39692855
7	0x3f25dce6	0.6479019
8	0x3f852358	1.0401411
9	0x3f939be0	1.1531944
10	0x3ebc0c11	0.36727956
11	0x3f0a88b4	0.5411484
12	0xbe66dffc	-0.22546381
13	0x3ec20ffd	0.37902823
14	0xbf253dea	-0.645476
15	0x3f4fd20b	0.81179875
16	0x3d8175ae	0.06321274
17	0x3faa4321	1.3301736
18	0xbf1f2043	-0.621586
19	0x3f08a428	0.5337548
20	0xbdc00cbc	-0.09377429
21	0xbe115d36	-0.14195713
22	0x3e9c6e19	0.30552748
23	0x3f11721c	0.5681474
24	0x3f1329c5	0.5748561
25	0x3e88659d	0.26640025
26	0x3fb8615e	1.4404714
27	0x3ef7699e	0.48322767
28	0xbe76734e	-0.24067423
29	0x3fbb28dd	1.4621845
30	0x3f949de9	1.161069
31	0x3f6291d8	0.8850379
32	0xc022aee3	-2.5419242
33	0xc054c7ea	-3.3247018
34	0xc07e59f2	-3.9742398
35	0xc05e3158	-3.4717617
36	0xbfc61b23	-1.5477031
37	0xc01b7e91	-2.4296
38	0xc0366de4	-2.8504572
39	0xbfafa0d0	-1.3720951
40	0xbf2bc72f	-0.67100805
41	0xc05e5080	-3.4736633
42	0xc03ce295	-2.9513295
43	0xc0280298	-2.6251583
44	0xc0060e61	-2.0946276
45	0xbfd37bf4	-1.6522202
46	0xc0383ac6	-2.8785872
47	0xc016f730	-2.3588371
48	0xc07aecf3	-3.9207122
49	0xc0152f44	-2.3310099
50	0xc006f0cb	-2.1084468
51	0xc050d0ff	-3.262756
52	0xc03023a0	-2.7521744
53	0xbfca29b4	-1.5793977
54	0xc04a9ab4	-3.1656923
55	0xc078fc4e	-3.8903995
56	0xc0016755	-2.021932
57	0xbfc1ef6a	-1.5151188
58	0xc0427b19	-3.0387633
59	0xbf79cc7e	-0.97577655
60	0xbff0ebaa	-1.8821919
61	0xc08b7f09	-4.359257
62	0xc05f119c	-3.4854498
63	0xc0683a4b	-3.628558
64	0x3e9e5d8d	0.3093075
65	0xbdab3128	-0.08358985
66	0xbf354309	-0.7080541
67	0x3e8f1d14	0.27951872
68	0xbeabde76	-0.33568162
69	0xbf206a7b	-0.62662476
70	0xbe1d8675	-0.15383323
71	0x3e9ca2f9	0.30593088
72	0xbce2e0d8	-0.027695104
73	0x3eb209b1	0.3477302
74	0xbef3894b	-0.47565684
75	0x3f1f58f0	0.6224508
76	0xbe77aa3a	-0.2418603
77	0x3e919070	0.2843051
78	0xbd3b4377	-0.045718636
79	0x3f2f3b8e	0.6845025
80	0x3e1922e7	0.1495472
81	0x3e32b014	0.17449981
82	0x3e3dce14	0.18535644
83	0x3ed0a986	0.40754336
84	0x3e2a6ff1	0.16644265
85	0x3e9974ac	0.29971826
86	0xbeb6533c	-0.35610378
87	0x3ed741c5	0.42042366
88	0xbe9c49ba	-0.30525
89	0xbf35fd04	-0.71089196
90	0x3e075d62	0.13219216
91	0x3eeadeba	0.45873052
92	0x3e5987a7	0.21243154
93	0xbde9884c	-0.1140295
94	0xbe861678	-0.26189017
95	0x3e356c53	0.17717104
96	0xbfd7fe52	-1.6874487
97	0x3e0b4256	0.13599524
98	0xbe3fb10b	-0.1871988
99	0xbe7ce956	-0.24698386
100	0xc005833b	-2.0861347
101	0xbf721c11	-0.94574076
102	0xbfcaef98	-1.5854368
103	0xbf6bbb0d	-0.9208229
104	0x3e443f45	0.1916476
105	0xbee64ea1	-0.44981864
106	0xbfabbd18	-1.3417082
107	0xbf278fa1	-0.65453535
108	0xc0084836	-2.1294074
109	0xbfbb2e2a	-1.4623463
110	0xbfedc19e	-1.8574712
111	0xbe3a7b33	-0.1821106
112	0xbfa557e8	-1.2917452
113	0xbdd8ce19	-0.10586185
114	0xbfcbb68e	-1.5915086
115	0xbf672953	-0.9029743
116	0xbfdd7712	-1.7301962
117	0xbf8a7ce5	-1.0819365
118	0xbf596529	-0.84919983
119	0xbf3de768	-0.7418122
120	0xbf5a4fe1	-0.85278136
121	0xbeabea6c	-0.33577287
122	0x3e81523a	0.25258046
123	0x3d370da8	0.044690758
124	0xbfd4c24f	-1.6621798
125	0x3f724d1e	0.9464892
126	0x3e364749	0.1780063
127	0xbf82570c	-1.0182815

traj_lstm_model.bias_hh f4 [128]
0	0x3db0c232	0.0863079
1	0x3f9fa39e	1.2471807
2	0x3f42bd6b	0.7607028
3	0x3f5e8a43	0.8692972
4	0xbe9291f8	-0.2862699
5	0x3f054232	0.5205413
6	0xbebfcaad	-0.37459317
7	0x3f254b81	0.64568335
8	0x3f8ab6ac	1.0836997
9	0x3f8fe66f	1.1242198
10	0x3f0d7cd5	0.55268604
11	0x3ee733e2	0.4515677
12	0xbead765e	-0.3387937
13	0x3e4e19ec	0.20127076
14	0xbf3149ed	-0.69253427
15	0x3f26b68a	0.6512228
16	0xb9db3449	-0.0004180989
17	0x3f92b843	1.1462482
18	0xbf3ab5a7	-0.7293343
19	0x3ea09b4e	0.31368488
20	0xbe7b0071	-0.24511887
21	0xbe21347e	-0.1574268
22	0x3ef9b640	0.48771858
23	0x3f018b4b	0.5060317
24	0x3f2501ee	0.6445607
25	0x3eaae34d	0.33376542
26	0x3fa0c5ca	1.256036
27	0x3f35049f	0.70710176
28	0xbe5f9970	-0.21835876
29	0x3fbade5c	1.4599109
30	0x3fa47acc	1.2849975
31	0x3f6b9043	0.92017
32	0xc01da99a	-2.4634767
33	0xc0530bf4	-3.2976046
34	0xc0744246	-3.816545
35	0xc04e5dfe	-3.2244868
36	0xbfb397b2	-1.4030669
37	0xc02cf75e	-2.702598
38	0xc0416e5e	-3.0223613
39	0xbfacea3d	-1.3508984
40	0xbf39096e	-0.72280014
41	0xc06e4764	-3.7231073
42	0xc03a74ff	-2.9133909
43	0xc01de511	-2.467106
44	0xc003b60a	-2.0579858
45	0xbfd437fb	-1.6579584
46	0xc030336f	-2.7531393
47	0xc01296a4	-2.2904444
48	0xc07b3990	-3.9253883
49	0xc00d6838	-2.209486
50	0xbff8cd7b	-1.9437708
51	0xc0450e84	-3.079011
52	0xc02b0940	-2.6724396
53	0xbfbe7860	-1.4880486
54	0xc0520d9f	-3.2820814
55	0xc06e8f1c	-3.7274847
56	0xbfe0b159	-1.7554122
57	0xbfd2830b	-1.6446241
58	0xc0376fe0	-2.8662033
59	0xbf601933	-0.8753845
60	0xbfef86e6	-1.8713043
61	0xc08b6b28	-4.3568306
62	0xc06054db	-3.5051792
63	0xc06256ca	-3.5365472
64	0x3e8a6f22	0.27037913
65	0xbe3c6db3	-0.18401222
66	0xbefa547e	-0.48892587
67	0x3e81f08f	0.25378844
68	0xbe95085c	-0.2910794
69	0xbf0099d1	-0.50234705
70	0xbe5ff7e6	-0.2187191
71	0x3ebc7648	0.3680899
72	0x3dbf839a	0.09351273
73	0x3d5b6ce9	0.05357066
74	0xbed28033	-0.41113433
75	0x3f15e873	0.58557814
76	0xbda55687	-0.080731444
77	0xb99a2e3d	-0.0002940762
78	0xbdfe73e5	-0.12424449
79	0x3f1d1a22	0.61368
80	0x3d7cb76f	0.061698373
81	0x3eb274a8	0.34854627
82	0x3e42cb43	0.1902285
83	0x3de027dd	0.10945103
84	0x3db08e53	0.08620896
85	0x3ecb7054	0.39734137
86	0xbef967db	-0.48712048
87	0x3ebd5ae5	0.3698341
88	0xbeb5bb55	-0.35494485
89	0xbf332d4f	-0.6999101
90	0x3ec09426	0.37613028
91	0x3ee8fa2c	0.45503366
92	0x3e30ba54	0.17258579
93	0x3e08935e	0.13337466
94	0xbe43acc1	-0.19108869
95	0x3e34d7ef	0.17660497
96	0xbfd49020	-1.6606483
97	0x3db219cb	0.08696326
98	0xbe2ac294	-0.16675788
99	0xbe5bb8b9	-0.21457185
100	0xc00884d2	-2.1331067
101	0xbf6c9f4f	-0.92430586
102	0xbfefc962	-1.8733332
103	0xbf7325f3	-0.9497978
104	0x3eb402e1	0.35158446
105	0xbf053974	-0.5204079
106	0xbfb672f9	-1.4253837
107	0xbf5bb24c	-0.85818934
108	0xbffef3cb	-1.991815
109	0xbfc8ff58	-1.5702925
110	0xbfed1334	-1.8521485
111	0xbd88893d	-0.06666801
112	0xbf9eaffa	-1.2397454
113	0xbe09b835	-0.13449176
114	0xbfbd0dfa	-1.476989
115	0xbf8fbe2d	-1.1229912
116	0xbfde4188	-1.7363749
117	0xbf8444cf	-1.0333499
118	0xbf7b1756	-0.9808248
119	0xbf2cacd3	-0.6745121
120	0xbf73a00b	-0.9516608
121	0xbec74a75	-0.38923994
122	0x3e0ee660	0.13955069
123	0xbe2b4eb9	-0.16729249
124	0xbfbfa1f1	-1.4971296
125	0x3f8ab44e	1.0836275
126	0x3e041ff0	0.12902808
127	0xbfa1fc53	-1.2655128

graph_lstm_model.weight_ih f4 [128, 32]
0	0x3d46a8d6	0.04850086
1	0xbddab883	-0.10679724
2	0x3ca5b789	0.020229118
3	0xbe26ff1b	-0.16308253
4	0xbe49a370	-0.19691253
5	0x3e10f428	0.14155638
6	0x3ce84b81	0.028356316
7	0x3e125053	0.14288454
8	0xbe1096be	-0.14120004
9	0xbdcf801d	-0.101318575
10	0x3df5fd43	0.120111965
11	0xbd93ace6	-0.07210712
12	0xbe259f53	-0.16174059
13	0x3d6bd591	0.05757672
14	0x3dd96b4e	0.1061617
15	0xbd387260	-0.04503095
16	0xbe342ced	-0.17595263
17	0x3df0163f	0.11722993
18	0x3e0d1c23	0.13780265
19	0xbe23361a	-0.15938607
20	0xbdddada2	-0.108241335
21	0x3e07e7a2	0.13271955
22	0x3d115197	0.0354782
23	0x3e5e095d	0.2168326
24	0xbdce2e76	-0.100674555
25	0xbde31f32	-0.110899344
26	0xbe1dab63	-0.1539741
27	0x3e07769b	0.13228838
28	0xbe320e41	-0.1738825
29	0xbd965c86	-0.07341866
30	0x3c9e771f	0.01934391
31	0xbd4a0347	-0.04931953
32	0x3de5e83e	0.11225937
33	0x3d8167d7	0.06318634
34	0x3dc09be5	0.094047345
35	0xbce6d3cf	-0.02817717
36	0x3e2d365a	0.16915265
37	0x3dfb4f22	0.12270953
38	0x3c55d435	0.013051082
39	0xbe028c14	-0.12748748
40	0x3b594985	0.0033155393
41	0xbdd602c8	-0.10449749
42	0x3de47c89	0.11156566
43	0x3e00e5b5	0.12587626
44	0xbdc33742	-0.09532024
45	0x3dce954e	0.10087071
46	0xbcc3ad2f	-0.023886291
47	0x3db3a1a9	0.087710686
48	0x3d5a057e	0.053227894
49	0xbd22396e	-0.03960555
50	0x39c8009c	0.00038147427
51	0x3e283a2d	0.16428442
52	0xbd9b6089	-0.07586772
53	0x3e1fb04d	0.15594597
54	0xbe10355f	-0.1408286
55	0xbe6ea8d8	-0.23306596
56	0xbdb00a98	-0.085957706
57	0x3da5949d	0.08084986
58	0xbd0aa3f4	-0.033847764
59	0x3e44f70c	0.19234866
60	0xbe140e40	-0.14458561
61	0x3de8f592	0.11374964
62	0xbd4745bd	-0.048650492
63	0xbe2ab698	-0.16671216
64	0x3deb4d3c	0.11489341
65	0x3d13caf9	0.03608224
66	0x3ddc6825	0.107620515
67	0xbd577c88	-0.052608997
68	0x3dafff9e	0.08593677
69	0xbe56fe2f	-0.20995401
70	0xbb4c80cf	-0.0031204706
71	0xbdeaaeae	-0.11459099
72	0x3d49c7ca	0.0492628
73	0xbe191d33	-0.14952545
74	0xbe4c8cc4	-0.19975573
75	0xba81d3d1	-0.0009905045
76	0x3cc26936	0.02373181
77	0xbddc5875	-0.10759059
78	0xbd72d24a	-0.05928258
79	0xbba877e4	-0.005141245
80	0x3e41be17	0.1892017
81	0x3e0a4edc	0.13506645
82	0xbdf8a1e5	-0.12140254
83	0xbd1b563b	-0.037924033
84	0xbd79df29	-0.061003838
85	0xbca0387a	-0.01955818
86	0xbd002d2e	-0.031293087
87	0x3e43aa74	0.19107991
88	0x3bfe35f5	0.007757897
89	0xbe260dd5	-0.16216214
90	0xbccfc44f	-0.025362162
91	0x3dfa5487	0.122231536
92	0xbdbefe4f	-0.09325849
93	0xbdf4d250	-0.119541764
94	0x3e27f16e	0.16400692
95	0xbe0a2678	-0.13491237
96	0x3dcb91c5	0.09939913
97	0x3cfc3411	0.030786546
98	0x3dd563de	0.10419439
99	0xbdad77fa	-0.08470149
100	0xbd95d242	-0.07315494
101	0xbe2ec7c6	-0.17068395
102	0xbe3b8774	-0.1831339
103	0xbe4f4925	-0.20242746
104	0x3bd8078a	0.0065926956
105	0xbe4b772d	-0.1986968
106	0x3cf8c551	0.030367525
107	0xbde36712	-0.111036435
108	0x3d517d9d	0.051145185
109	0x3d16ea2b	0.036844414
110	0x3d4f6a45	0.050638456
111	0xb9aef14c	-0.00033367646
112	0x3c53dc24	0.012930904
113	0x3e345620	0.17610979
114	0xbe153606	-0.1457139
115	0xbdd7ddf0	-0.10540378
116	0xbd94086d	-0.072281696
117	0x3da7ea50	0.081989884
118	0x3dfa52e7	0.122228436
119	0xbc647f68	-0.013946392
120	0xbe06ab4e	-0.13151285
121	0xbe0e61a5	-0.13904436
122	0x3d0a5d78	0.033780545
123	0xbdc3f959	-0.09569044
124	0x3c6ba39f	0.014382272
125	0x3d39b516	0.045338713
126	0xbda8611a	-0.08221646
127	0x3e25a3c5	0.16175754
128	0x3cab69a9	0.020924406
129	0xbc47274d	-0.012155366
130	0xbdc072f9	-0.09396929
131	0x3dc9065a	0.098156646
132	0xbde231cc	-0.11044654
133	0x3d8d5c3c	0.06902358
134	0x3cf642af	0.030061094
135	0x3da4a055	0.080383934
136	0xbe0b3405	-0.13594063
137	0x3c84bfa7	0.016204668
138	0x3dce0f6d	0.10061536
139	0xbd1dac98	-0.038494676
140	0x3dd5e957	0.10444897
141	0x3dd2f03b	0.102997266
142	0x3d7e0b2f	0.062022384
143	0x3e025a8f	0.12729858
144	0xbda4fa5d	-0.080555655
145	0xbd0c318e	-0.034226947
146	0x3d1e9d76	0.038724385
147	0xbc029484	-0.007969979
148	0xbe1cad94	-0.1530059
149	0xbd32aab0	-0.04361981
150	0xbdf182e4	-0.117925435
151	0xbcb2f4d7	-0.021845264
152	0xbd73471c	-0.059393987
153	0xbe0b92b8	-0.13630188
154	0xbd0cf166	-0.034409903
155	0x3e009c1e	0.12559554
156	0xbd178e7c	-0.037001118
157	0x3e508a1a	0.20365182
158	0xbcb93e8c	-0.022612832
159	0x3b91c055	0.0044479766
160	0xbdf72e94	-0.12069431
161	0x3de3fc11	0.11132062
162	0x3e25a722	0.16177037
163	0xbc442d6a	-0.011973718
164	0xbd86117c	-0.06546304
165	0xbdb4c25e	-0.08826135
166	0xbda23433	-0.079201125
167	0xbe219893	-0.15780859
168	0xbe5b751d	-0.21431394
169	0x3e0fb118	0.140324
170	0xbe40094d	-0.18753548
171	0x3ccc7b2f	0.024961082
172	0x3dedd2af	0.1161245
173	0x3d6100f6	0.054932557
174	0x3cb53b12	0.022122893
175	0x3dd65c55	0.1046683
176	0x3cfab3af	0.030603258
177	0x3dc8792e	0.09788738
178	0xbd8aaed5	-0.06771628
179	0x3e071139	0.13190164
180	0x3dfb1cc5	0.12261347
181	0xbe1a7000	-0.15081787
182	0x3ced4983	0.028965717
183	0xbd8674de	-0.065652594
184	0x3de252c4	0.110509425
185	0xbe285355	-0.16438039
186	0xbd622a2a	-0.055215992
187	0xbe21990d	-0.1578104
188	0x3deed933	0.11662521
189	0xbbe9a7e6	-0.0071306108
190	0x3df90e64	0.12160948
191	0x3d0aa7bd	0.033851374
192	0x3a31e18d	0.0006785624
193	0x3d3e2496	0.04642161
194	0x3e08d0ba	0.13360873
195	0x3e053e48	0.1301204
196	0xbdcf4345	-0.101202525
197	0xbe002157	-0.12512718
198	0xbd88afff	-0.066741936
199	0xbd61e56a	-0.055150427
200	0xbd9000e7	-0.07031422
201	0xbccaa50f	-0.02473691
202	0xbdd6357b	-0.10459419
203	0x3ddc1928	0.10746986
204	0x3e251949	0.16122927
205	0x3d8e0a88	0.069356024
206	0x3d018266	0.0316185
207	0x3d4a4279	0.0493798
208	0xbd5e5f6b	-0.054290216
209	0xbded4052	-0.11584534
210	0x3e598348	0.21241486
211	0xbe4fc8f4	-0.20291501
212	0xbe19493f	-0.14969347
213	0xbe422282	-0.18958476
214	0xbe4c63ce	-0.19959947
215	0xbd7f5bf6	-0.06234356
216	0xbe1931a0	-0.14960337
217	0xbe0db189	-0.13837256
218	0xbcbd281a	-0.023090411
219	0x3d91da75	0.071217455
220	0x3da64b1b	0.08119794
221	0x3dd701fe	0.10498427
222	0x3e04d938	0.12973487
223	0x3e05ec61	0.13078453
224	0x3c8d6ce2	0.017263833
225	0x3dccc24e	0.09997998
226	0xbe165464	-0.1468063
227	0x3e2dee4a	0.16985431
228	0x3e536892	0.20645359
229	0xbde49206	-0.11160664
230	0xbc848c36	-0.016180139
231	0xbe3b9daf	-0.1832187
232	0xbd4dfb1b	-0.0502883
233	0xbe2cbfca	-0.16870037
234	0xbd9bbeda	-0.076047614
235	0x3de5392c	0.11192545
236	0x3dd36d7f	0.10323619
237	0x3ae3be7d	0.0017375496
238	0xbc8eb051	-0.017418059
239	0xbd4748c9	-0.048653398
240	0x3e09756a	0.13423696
241	0xbdcf75a7	-0.10129862
242	0x3ddb0615	0.106945194
243	0xbdb23648	-0.087017596
244	0xbe3ff529	-0.18745865
245	0x3e32f1bf	0.17475031
246	0xbe130d55	-0.14360555
247	0xbde73758	-0.11289853
248	0xbe4abc0d	-0.19798298
249	0x3dbfb3ec	0.09360489
250	0xbe2eb753	-0.1706212
251	0x3d1894b8	0.037251204
252	0x3d9ba0b8	0.07599014
253	0x3e7b67cd	0.24551316
254	0xbd071eda	-0.032988407
255	0xbd6ecd2a	-0.05830113
