STGAT/models/waymo_len8_pred8_model.pth.tar (torch_old, 549109 bytes, 78 tensors)

gatencoder.gat_net.layer_stack.0.w f4 [4, 32, 16]
0	0xbe7d8d72	-0.24760988
1	0xbe360faa	-0.17779413
2	0xbe647a21	-0.22312213
3	0x3e5b95cc	0.21443862
4	0x3eae2ba1	0.3401766
5	0xbe05c617	-0.13063847
6	0xbe055bab	-0.1302325
7	0xbd86ea74	-0.06587687
8	0x3e34a248	0.1764003
9	0x3d99f1e6	0.075168416
10	0x3e4e83f2	0.2016752
11	0x3e30e676	0.17275414
12	0xbe0fc57f	-0.14040183
13	0xbdb7ea00	-0.08980179
14	0xbe9b62c0	-0.30348778
15	0xbd70e546	-0.058812402
16	0xbe5f68c1	-0.21817304
17	0xbd2c40e8	-0.042054087
18	0xbe477378	-0.19477642
19	0x3e5baf38	0.2145356
20	0x3e82ac19	0.25521925
21	0x3d452ba3	0.04813732
22	0xbe9128fc	-0.2835158
23	0xbe8b6263	-0.272235
24	0x3de133e6	0.10996227
25	0x3e3332f1	0.17499901
26	0x3e237d05	0.1596566
27	0x3e65908c	0.22418422
28	0xbe4a38ae	-0.19748184
29	0xbe5d796a	-0.21628347
30	0xbd5a46c2	-0.053290136
31	0xbe39957b	-0.18123429
32	0x3e376c31	0.17912365
33	0x3e7f6fd1	0.24944998
34	0x3d674fa7	0.056472447
35	0xbe8c43b6	-0.2739541
36	0xbd96787e	-0.07347201
37	0x3dfd570c	0.123701185
38	0x3e504374	0.20338231
39	0x3e06ae3d	0.13152404
40	0xbdac0ee6	-0.08401279
41	0xbcab15fd	-0.020884508
42	0xbea4b095	-0.3216597
43	0xbe78b76e	-0.24288723
44	0x3e5a0d53	0.21294145
45	0x3e7509ab	0.2392947
46	0x3dea273a	0.11433263
47	0x3d723720	0.059134603
48	0xbc97e40b	-0.018541357
49	0x3d9c58d1	0.07634128
50	0x3deff876	0.11717312
51	0xbe995441	-0.29947093
52	0xbe126ecd	-0.1430008
53	0x3e32823f	0.17432497
54	0x3e850e0d	0.25987282
55	0x3e046b02	0.12931445
56	0xbe5df35f	-0.2167487
57	0xbdea8c1f	-0.11452507
58	0xbe3ec6f5	-0.18630584
59	0xbe6ea1ab	-0.23303859
60	0x3e8940a1	0.2680712
61	0x3e88a6b1	0.26689675
62	0x3de7e393	0.11322703
63	0x3daa43e9	0.08313734
64	0x3e25d30b	0.16193788
65	0x3be52d50	0.006993927
66	0x3e5af411	0.21382166
67	0xbe957ac6	-0.2919523
68	0xbdc0d700	-0.09416008
69	0x3cbcd72e	0.023051824
70	0x3e1aea09	0.1512834
71	0x3d8cb234	0.06869927
72	0xbe4a2c3a	-0.19743434
73	0xbe051a5f	-0.12998341
74	0xbe8afc0b	-0.2714542
75	0xbe3e7afc	-0.18601602
76	0x3e34ce3e	0.176568
77	0x3eae0f72	0.3399616
78	0xbd5f574b	-0.05452661
79	0x3ba4b3ab	0.005026301
80	0x3e5d8cce	0.21635744
81	0x3d917923	0.07103183
82	0x3e4dbf63	0.2009254
83	0xbe7261ac	-0.23670071
84	0xbe99b023	-0.30017194
85	0x3e17cb50	0.14823651
86	0x3e8c8212	0.27442986
87	0x3e901ebb	0.28148445
88	0xbe5876d7	-0.21139084
89	0xbe6abe4b	-0.22924154
90	0xbe5ca50c	-0.21547335
91	0xbe230cae	-0.15922806
92	0x3e156584	0.14589506
93	0x3e7a36d3	0.24434976
94	0x3e91612a	0.28394443
95	0x3dced82c	0.10099825
96	0xbe41d614	-0.1892932
97	0xbe61962a	-0.2202994
98	0xbe1c5293	-0.15265875
99	0x3e0f7e8c	0.14013118
100	0x3e92cd40	0.28672218
101	0x3e1c8b6d	0.15287562
102	0xbd9bdcdf	-0.07610487
103	0xbe784e2c	-0.2424857
104	0x3e90d4d5	0.28287378
105	0x3d9d88dd	0.0769212
106	0x3b99bbca	0.0046915757
107	0x3dc46864	0.095902234
108	0x3ee4cd3b	0.44687828
109	0xbc0d6da0	-0.008632094
110	0xbe17bb3c	-0.14817518
111	0x3dd239b2	0.10264911
112	0xbe75ff2d	-0.24023123
113	0xbe4a0ced	-0.19731493
114	0xbd6060d5	-0.054779846
115	0x3e6717b9	0.22567643
116	0x3e93b3ed	0.2884821
117	0xbdb7ca17	-0.089740925
118	0xbe3d911a	-0.18512383
119	0xbe9e5c98	-0.30930018
120	0x3e51da53	0.2049344
121	0x3cfc1caf	0.030775396
122	0x3d6c5b10	0.05770403
123	0x3e4bbd04	0.19896322
124	0xbc77e03a	-0.015129143
125	0xbe3b6427	-0.18299924
126	0xbe0cb230	-0.13739848
127	0xbd065b5d	-0.032801975
128	0x3e8198ca	0.2531188
129	0x3d57e867	0.05271187
130	0x3ea41649	0.32048252
131	0xbe4bb4cf	-0.19893192
132	0xbe77d1ef	-0.24201177
133	0x3e283b9f	0.16428994
134	0x3d846313	0.064642094
135	0x3e6c5d08	0.23082364
136	0xbe68c2b5	-0.22730525
137	0xbe8086c9	-0.25102833
138	0xbd9a555d	-0.07535813
139	0xbd9d4462	-0.076790586
140	0x3da3bfa9	0.07995541
141	0x3e1517cb	0.14559858
142	0x3dabb0e3	0.08383348
143	0x3e369406	0.17829904
144	0x3ea2172b	0.316583
145	0x3e434c4b	0.19072072
146	0x3dcccdbf	0.100001805
147	0xbd231d22	-0.039822705
148	0xbce114f7	-0.027475817
149	0xbe86d2f8	-0.2633283
150	0xbe7f7818	-0.24948156
151	0x3dffde60	0.124935865
152	0xbed2d1ac	-0.41175592
153	0xbd2600e0	-0.04052818
154	0x3b962727	0.004582304
155	0x3e634630	0.22194743
156	0xbe6f60bf	-0.2337675
157	0xbd180f06	-0.037123702
158	0x3ebdbcd1	0.37058118
159	0xbe1835fd	-0.14864345
160	0x3ea9f936	0.33197945
161	0x3e31ac13	0.17350797
162	0x3da50316	0.08057229
163	0xbde6ee8f	-0.1127597
164	0xbe22952d	-0.15877219
165	0x3e36fdb6	0.1787022
166	0x3e112dbb	0.14177601
167	0x3e0ed2b9	0.13947572
168	0xbda1ac9a	-0.07894249
169	0xbcb70e80	-0.022345781
170	0xbe21a97d	-0.15787311
171	0xbe439b07	-0.19102107
172	0xbc1e0efc	-0.009647127
173	0x3e19553a	0.14973918
174	0x3e9498bd	0.2902278
175	0x3dd410ec	0.1035479
176	0xbc929fec	-0.017898522
177	0xbe0bbb30	-0.13645625
178	0xbc014f24	-0.007892404
179	0x3e8d81f7	0.27638218
180	0x3de6dfef	0.11273181
181	0xbdb0318f	-0.086032026
182	0xbe294852	-0.16531494
183	0xbe42f451	-0.19038512
184	0x3dfaa2bb	0.122380696
185	0x3e87af0b	0.26500735
186	0x3e39cc6d	0.18144388
187	0x3e79899a	0.24368897
188	0xbe84e6f2	-0.25957447
189	0xbe59d88e	-0.21274015
190	0xbe292d7b	-0.16521256
191	0xbe28bbe7	-0.16477929
192	0xbd1da568	-0.03848782
193	0x3c0d2d42	0.008616747
194	0x3e53ab78	0.20670879
195	0xbe894a4f	-0.26814505
196	0xbe4b89e3	-0.19876818
197	0x3e03b00b	0.12860124
198	0x3e0acdb7	0.13555036
199	0x3e18c618	0.14919317
200	0xbe6b2638	-0.22963798
201	0xbd9c20d3	-0.07623448
202	0xbea7c9b7	-0.32771084
203	0xbe2c8170	-0.16846251
204	0x3e883ce6	0.26608962
205	0x3e3c9d80	0.18419456
206	0x3d650abc	0.05591844
207	0x3d509044	0.050918832
208	0xbcf2e0a7	-0.029648138
209	0x3e28011b	0.16406672
210	0x3e559145	0.20856197
211	0xbe98ed69	-0.2986863
212	0xbe9c2c0f	-0.30502364
213	0x3dc44867	0.09584122
214	0x3e33a8c1	0.17544843
215	0x3ea9640d	0.33084145
216	0x3c8dc3bf	0.017305253
217	0xbe8ed5a7	-0.2789738
218	0xbd952fe3	-0.07284524
219	0xbe159294	-0.14606696
220	0x3d8259d0	0.063647866
221	0x3d9ed18a	0.0775481
222	0x3d2246f5	0.03961845
223	0x3d0da58b	0.034581702
224	0xbdc55bc0	-0.096366405
225	0xbe88f8b9	-0.2675226
226	0xbe05baf8	-0.13059604
227	0x3e218ed4	0.15777141
228	0x3e81e06c	0.25366533
229	0xbd665d4a	-0.05624131
230	0xbe0d7e72	-0.13817766
231	0xbe7ee375	-0.24891455
232	0x3d8d18ff	0.06889533
233	0x3e80185d	0.25018588
234	0x3de02f58	0.1094653
235	0x3e8c3596	0.27384633
236	0xbd8e82e4	-0.06958559
237	0xbe2a7538	-0.16646278
238	0xbe264f0d	-0.16241093
239	0xbdcd9058	-0.10037297
240	0x3e99e0fb	0.3005446
241	0x3e5078fa	0.20358649
242	0x3e83563b	0.25651726
243	0xbe84663b	-0.25859246
244	0xbe50e4a4	-0.2039972
245	0x3d9d54a0	0.076821566
246	0x3e9d6724	0.30742753
247	0x3e91b250	0.28456354
248	0xbdb5e576	-0.08881657
249	0xbbd32655	-0.0064437785
250	0xbdde9400	-0.108680725
251	0xbe1de586	-0.15419587
252	0x3d32c308	0.043643028
253	0x3dffb0ed	0.12484918
254	0x3d70a4a8	0.05875078
255	0xbcf8ee18	-0.03038697

gatencoder.gat_net.layer_stack.0.a_src f4 [4, 16, 1]
0	0xbf57dbe2	-0.8431989
1	0xbeb86ca0	-0.36020374
2	0xbef31bce	-0.4748215
3	0x3f3834ff	0.71955866
4	0x3f032151	0.5122271
5	0xbce7e6dd	-0.028308326
6	0xbe826813	-0.25470027
7	0xbf2fc6ff	-0.6866302
8	0x3e81a217	0.25318977
9	0x3ec17b71	0.3778949
10	0x3ee33570	0.44376707
11	0x3e991dd2	0.29905564
12	0xbdcf1cc2	-0.10112907
13	0xbf1f07bb	-0.6212117
14	0xbe370f8b	-0.17877023
15	0x3e8c3e84	0.27391446
16	0x3e6a96a4	0.22909027
17	0x3cee34e1	0.029077949
18	0x3e5061f6	0.20349869
19	0x3f5db6bc	0.86606956
20	0xbeed788f	-0.4638104
21	0xbe71cfb6	-0.23614392
22	0xbcb187df	-0.021671234
23	0xbef9f8f7	-0.48822758
24	0xbe33034e	-0.1748173
25	0xbdbbe56a	-0.09174617
26	0xbdd43b18	-0.10362834
27	0xbf1d2d10	-0.61396885
28	0xbf2e854b	-0.6817214
29	0x3f01ed0a	0.5075232
30	0xbefab7a8	-0.48968244
31	0x3de86a97	0.113484554
32	0xbd98b80b	-0.074569784
33	0x3dc4ca37	0.09608882
34	0xbf4023b9	-0.7505451
35	0xbb794601	-0.003803611
36	0x3f015b00	0.5052948
37	0x3eac35b3	0.3363472
38	0xbdf5a161	-0.11993671
39	0xbf08a4e1	-0.53376585
40	0xbdc53022	-0.09628321
41	0xbdf4c04b	-0.119507395
42	0xbf38cff2	-0.721923
43	0xbf00567d	-0.5013197
44	0xbe80cc21	-0.25155738
45	0x3f10ee86	0.5661396
46	0xbd7cb13f	-0.061692473
47	0x3d6a4cbb	0.057202082
48	0x3f1f6bf1	0.6227408
49	0x3f904cc0	1.1273422
50	0xbd7b9ec9	-0.061430726
51	0x3e7564ef	0.23964284
52	0xbdb6cb0d	-0.089254476
53	0xbf5b5547	-0.85677
54	0xbdfdec35	-0.123985685
55	0xbf65ec8b	-0.8981406
56	0xbed30898	-0.41217494
57	0x3ee7d28e	0.45277828
58	0xbef451ef	-0.4771876
59	0x3f2fdb4b	0.6869399
60	0xbf016f77	-0.50560707
61	0xbe206846	-0.15664777
62	0xbf7c2ca6	-0.9850563
63	0x3cd418ca	0.025890727

gatencoder.gat_net.layer_stack.0.a_dst f4 [4, 16, 1]
0	0xbe6d7b2e	-0.2319152
1	0xbdeace82	-0.114651695
2	0xbf1661a1	-0.5874272
3	0xbe79d3d4	-0.24397212
4	0xbf008a7c	-0.5021131
5	0x3f12ec24	0.5739157
6	0x3f20a4b7	0.62751335
7	0x3f0b7213	0.5447094
8	0x3e8191f7	0.25306675
9	0x3e024a15	0.12723573
10	0xbf670c59	-0.90253216
11	0xbebd9711	-0.37029317
12	0x3f0e137d	0.55498487
13	0x3f464c5d	0.7746027
14	0xbea81dbd	-0.32835189
15	0x3ec6be2a	0.3881696
16	0xbecc7cc1	-0.3993893
17	0xbf7179b8	-0.94326353
18	0xbf654461	-0.8955746
19	0x3f4c133f	0.7971687
20	0xbd0a4d88	-0.033765346
21	0xbeb0dc2b	-0.34542975
22	0x3e6369de	0.22208354
23	0x3d73314f	0.059373196
24	0x3f1c7b23	0.6112539
25	0x3e67045f	0.22560261
26	0xbf26372f	-0.64927953
27	0x3f44ae17	0.7682814
28	0xbf1af6f4	-0.6053307
29	0xbe92c142	-0.2866307
30	0x3f423b8f	0.7587213
31	0x3f751fbf	0.95751566
32	0x3e08023a	0.132821
33	0xbe32a8f1	-0.17447259
34	0xbf72ed7d	-0.9489363
35	0x3f1a0cc3	0.6017572
36	0xbea33c26	-0.31881827
37	0x3f678062	0.9043027
38	0xbf03d4f2	-0.51496804
39	0x3e25d048	0.16192734
40	0x3ee767db	0.45196423
41	0xbf563bfa	-0.83685267
42	0xbe0ba199	-0.13635863
43	0xbe850db2	-0.2598701
44	0x3f3447ee	0.70422256
45	0x3f21dc73	0.63227004
46	0x3ec6b036	0.38806313
47	0xbf834a32	-1.0257018
48	0x3e287113	0.16449384
49	0xbea5b901	-0.3236771
50	0x3ebf2591	0.37333348
51	0x3ea4acae	0.32162994
52	0xbcb0978e	-0.021556642
53	0x3eb821d2	0.35963303
54	0x3eddf397	0.43349907
55	0x3e184cca	0.14873043
56	0x3ed9ccec	0.42539155
57	0xbdc66dd4	-0.09688917
58	0x3e2da2a4	0.16956574
59	0x3f1e2966	0.6178192
60	0xbe6662a6	-0.22498569
61	0x3dd69d6b	0.10479244
62	0x3ef36888	0.4754069
63	0xbe6e77cd	-0.23287888

gatencoder.gat_net.layer_stack.0.bias f4 [16]
0	0xbdfdd8f7	-0.123948984
1	0x3d770680	0.060308933
2	0xbe236603	-0.15956883
3	0xbe851d06	-0.25998706
4	0xbd4a6ea7	-0.049421933
5	0x3da9a383	0.082831405
6	0x3e507d7b	0.20360367
7	0x3e5e15a2	0.2168794
8	0xbe0ef910	-0.13962197
9	0xbe024b3c	-0.12724012
10	0xbe2c59eb	-0.16831176
11	0xbc68ffd1	-0.014221148
12	0x3e385b32	0.18003538
13	0xbd897b1d	-0.06712935
14	0xbe514099	-0.20434798
15	0xbe411b40	-0.18858051

gatencoder.gat_net.layer_stack.1.w f4 [1, 64, 32]
0	0x3cc88816	0.024478953
1	0xbd535179	-0.05159137
2	0xbe39c1f0	-0.18140388
3	0xbd039759	-0.03212676
4	0x3e0a49d5	0.13504727
5	0x3d0fcb99	0.035106275
6	0xbd8713c3	-0.06595566
7	0x3cea7e4b	0.028624674
8	0x3ddadc7b	0.106865846
9	0xbd15430d	-0.036440898
10	0xbc1d71ed	-0.009609682
11	0xbce0eec1	-0.027457597
12	0x3cf2af7b	0.029624691
13	0xbb66940f	-0.0035183465
14	0x3e5d7a53	0.21628694
15	0xbc06f8f9	-0.008238071
16	0xbe5f1cbd	-0.21788307
17	0xbeaa5a4c	-0.33272016
18	0xbe6f15cc	-0.23348159
19	0x3e088529	0.13332047
20	0xbdf95e33	-0.1217617
21	0x3d6babfc	0.057537064
22	0x3e1c58d4	0.1526826
23	0x3e31f7e0	0.17379713
24	0x3c85586d	0.016277516
25	0xbdd879a7	-0.10570078
26	0xbe7db982	-0.24777797
27	0x3e5d1682	0.21590617
28	0x3df4aa66	0.119465634
29	0xbd511d96	-0.051053606
30	0xbd80e8ee	-0.06294428
31	0x3d64f300	0.055895805
32	0xbc9362ab	-0.017991384
33	0xbe1b0b67	-0.15141068
34	0x3ea1e7cb	0.31622157
35	0xbe84ab75	-0.2591206
36	0xbe7533e4	-0.23945576
37	0x3e13043a	0.14357081
38	0x3ea98b75	0.3311421
39	0x3e6e41b8	0.23267257
40	0x3e1aadb1	0.1510532
41	0x3db3fe67	0.08788758
42	0x3e6fc306	0.2341424
43	0xbeb7d096	-0.35901326
44	0xbe1a4237	-0.15064321
45	0xbe32f946	-0.17477903
46	0xbe85cb0e	-0.2613148
47	0xbe0e0c80	-0.13871956
48	0x3d5efb57	0.054438915
49	0xbb90753b	-0.004408506
50	0x3e979aca	0.29610282
51	0xbd749722	-0.059714444
52	0x3e5f1f75	0.21789344
53	0xbe86de53	-0.26341495
54	0x3e730c3f	0.2373514
55	0xbe87579e	-0.26434034
56	0xbe5a9637	-0.21346365
57	0x3df45d95	0.11931912
58	0x3e6acb00	0.22929001
59	0xbe5911c2	-0.2119818
60	0xbd90b4fd	-0.07065771
61	0xbe43d51a	-0.1912426
62	0x3d9645e1	0.07337547
63	0xbd31b3cf	-0.04338437
64	0x3e271269	0.16315617
65	0xbdf37c40	-0.11888933
66	0xbd947761	-0.07249332
67	0x3dede389	0.116156645
68	0x3e4930f9	0.19647588
69	0xbceb48c0	-0.028721213
70	0xbd29683f	-0.041359182
71	0xbe52e5fb	-0.20595543
72	0x3de1bd50	0.110224366
73	0xbd22dc4e	-0.03976088
74	0xbd47382a	-0.048637547
75	0xbd5cc82c	-0.053901836
76	0x3e0fb4ba	0.14033785
77	0xb9629d4a	-0.00021611634
78	0x3e3bb703	0.18331532
79	0x3b7db39f	0.00387118
80	0xbcac651f	-0.021044312
81	0xbe89b6c8	-0.26897264
82	0xbdc9310c	-0.09823808
83	0x3dde31e1	0.108493574
84	0xbb0f033d	-0.0021821999
85	0x3d93991f	0.0720694
86	0x3e1e41d5	0.154548
87	0x3de9e76b	0.114210926
88	0xbcf41c34	-0.029798605
89	0xbe02af1c	-0.12762111
90	0xbe72c508	-0.23707974
91	0x3e145bf4	0.14488202
92	0x3d582271	0.05276722
93	0x3d92d833	0.07170143
94	0xbdfbd921	-0.122972734
95	0x3e4a0e0f	0.19731925
96	0xbcc9691e	-0.024586257
97	0xbcfb31d2	-0.030663405
98	0x3d978c71	0.07399834
99	0xbdc1b22c	-0.09457812
100	0xbe0c7fbd	-0.13720603
101	0x3e3afb02	0.18259814
102	0x3db8fb33	0.090322874
103	0x3e53d967	0.20688401
104	0xbd6eaba8	-0.058269173
105	0x3e0a70c4	0.13519579
106	0x3cc20874	0.023685671
107	0xbd4d4464	-0.05011405
108	0xbd9e1d2f	-0.0772041
109	0x3db133e0	0.086524725
110	0xbe3a5a64	-0.18198544
111	0xbd81495d	-0.06312821
112	0xbc82a9f5	-0.015950182
113	0x3e96c8de	0.29450125
114	0x3dd4f2ac	0.103978485
115	0xbd8b027b	-0.067875825
116	0x3d190c92	0.037365504
117	0x3be648d8	0.0070277266
118	0xbdda2656	-0.10651843
119	0xbe196a41	-0.14981939
120	0xbe020aa0	-0.12699366
121	0x3ddf733e	0.109106526
122	0x3df17450	0.11789763
123	0xbe1e31d0	-0.1544869
124	0xbcb36dd8	-0.021902964
125	0x3c216732	0.009851264
126	0x3e280387	0.16407596
127	0xbd329197	-0.043595877
128	0xbe2656f0	-0.16244102
129	0xbe97acdb	-0.29624066
130	0x3ec7eb15	0.3904654
131	0x3e15ca9e	0.14628074
132	0xbeb7112d	-0.35755292
133	0xbd9c42ae	-0.07629906
134	0x3e1a6a8a	0.15079704
135	0xbd568ec2	-0.05238224
136	0x3e0a51dd	0.13507791
137	0x3e58010d	0.21094151
138	0x3e76ddc9	0.24108042
139	0xbe2eaf84	-0.17059141
140	0x3d718fd8	0.05897507
141	0xbcba5e91	-0.02275017
142	0xbcc2ed86	-0.0237949
143	0xbd883d25	-0.066522874
144	0x3e73b82e	0.23800728
145	0x3edbe5da	0.429488
146	0x3eb4f95b	0.35346493
147	0x3cded468	0.027200893
148	0x3e878d70	0.26475096
149	0xbe926f2e	-0.28600448
150	0xbd8fcba5	-0.07021264
151	0xbe5e0f85	-0.21685608
152	0xbe4556af	-0.19271348
153	0xbd8a7cbe	-0.06762074
154	0x3e86e117	0.26343605
155	0xbea60185	-0.32423034
156	0xbe6dd613	-0.23226194
157	0xbe0126d2	-0.12612465
158	0x3d853b92	0.06505503
159	0x3e13fc4d	0.14451714
160	0x3e2d3f84	0.1691876
161	0x3e9a8e59	0.30186728
162	0xbebcd995	-0.36884752
163	0xbe732e3d	-0.23748107
164	0x3ecf8aa0	0.4053545
165	0x3df4460d	0.119274236
166	0xbe195fe6	-0.14977989
167	0x3d8ec499	0.06971092
168	0xbdc4a05a	-0.09600897
169	0xbe44d249	-0.19220842
170	0xbe4e6dc7	-0.20159064
171	0x3cbc84f5	0.023012618
172	0xbe2465c6	-0.16054448
173	0x3dc5b2fe	0.09653281
174	0xbc845cd2	-0.016157541
175	0x3db549e0	0.08851981
176	0xbe705ff2	-0.234741
177	0xbebd6978	-0.3699453
178	0xbea324e2	-0.31864077
179	0xbd29e6bf	-0.041479822
180	0xbedcce17	-0.43125984
181	0x3e41c8a1	0.1892419
182	0x3c453bae	0.0120381545
183	0x3ea15aa5	0.3151447
184	0x3e673d55	0.2258199
185	0x3e783b1f	0.24241303
186	0xbe885dc5	-0.2663404
187	0x3ec5e53f	0.38651463
188	0x3ecd61d5	0.40113702
189	0xbcc69b27	-0.024243904
190	0x3d043c5f	0.032284137
191	0xbe028deb	-0.1274945
192	0x3ea1e8db	0.31622967
193	0x3e84e55b	0.25956234
194	0xbe90a618	-0.2825172
195	0xbe1ce4ae	-0.1532161
196	0x3e80711e	0.25086302
197	0x3d6fe2cf	0.05856591
198	0xbea51f3a	-0.32250386
199	0x3cefe1ad	0.029282415
200	0xbd84b9b9	-0.06480736
201	0xbe423f18	-0.18969381
202	0xbe4e32d5	-0.20136578
203	0x3e671670	0.22567153
204	0xbce308d3	-0.027714169
205	0x3d2f1ca0	0.04275191
206	0x3d92c8d3	0.071672104
207	0x3d9267ae	0.071486816
208	0xbe0feee6	-0.14055976
209	0xbec5aba4	-0.38607514
210	0xbeb2ebb8	-0.34945464
211	0xbd98d1fa	-0.07461925
212	0xbe9631f2	-0.2933498
213	0x3ddba810	0.10725415
214	0xbdbbc30e	-0.09168063
215	0x3e754532	0.23952177
216	0x3e9c9aa1	0.30586722
217	0x3de5c9e5	0.11220149
218	0xbea4eb59	-0.32210806
219	0x3ebc42d5	0.3676974
220	0x3e6d43a0	0.23170328
221	0x3e2a1ba1	0.16612102
222	0xbd8e4e09	-0.06948478
223	0xbe8488fa	-0.25885755
224	0x3d33b84f	0.043876942
225	0x3e12d06e	0.14337322
226	0xbdeb5dc2	-0.11492492
227	0xbdae6c46	-0.08516745
228	0x3e2d9673	0.16951923
229	0x3d763c51	0.060116116
230	0x3c855ff3	0.016281104
231	0xbc848a19	-0.016179131
232	0x3d1f5381	0.038897995
233	0xbdb8cab5	-0.09023038
234	0xbd8a2c6b	-0.06746753
235	0x3dbed155	0.09317271
236	0xbe20a297	-0.15687023
237	0xbe0b1b4a	-0.13584629
238	0x3e201173	0.15631656
239	0xbc77fff7	-0.01513671
240	0xbd9788a4	-0.07399109
241	0xbeaacace	-0.33357853
242	0xbe5283c7	-0.20558082
243	0x3c37071a	0.011171127
244	0xbdc3f06e	-0.09567343
245	0x3cc4996f	0.023998944
246	0x3e2abd69	0.16673817
247	0x3e5237a4	0.20529038
248	0x3e3b43b2	0.18287542
249	0x3d195769	0.037436876
250	0xbe798e50	-0.24370694
251	0x3e9b9a39	0.303911
252	0x3db5b04c	0.088715166
253	0xbda557cf	-0.08073389
254	0x3d08aada	0.03336606
255	0xbd6bfcaf	-0.057614025

gatencoder.gat_net.layer_stack.1.a_src f4 [1, 32, 1]
0	0x3f641556	0.89095056
1	0xbe5dab61	-0.21647407
2	0xbde9b5c8	-0.11411625
3	0xbd147469	-0.03624383
4	0x3e9fd429	0.31216553
5	0x3e7c78ab	0.24655406
6	0xbe2a6359	-0.1663946
7	0xbe57acea	-0.21062055
8	0xbe657584	-0.2240811
9	0xbdc9f108	-0.09860426
10	0xbef8f838	-0.48626876
11	0xbe47836c	-0.19483727
12	0x3d9c20bf	0.07623433
13	0x3e5270d3	0.20550852
14	0x3e8effe9	0.2792962
15	0x3d56068f	0.05225235
16	0x3f009f54	0.50243115
17	0xbef2ab2a	-0.47396213
18	0xbe9e28e8	-0.30890584
19	0xbeb2d2cb	-0.34926447
20	0x3e5736af	0.21016954
21	0x3e551fac	0.20812863
22	0xbe9e0c4a	-0.3086875
23	0x3ec25023	0.37951764
24	0xbf0a1fa4	-0.5395453
25	0xbebdc075	-0.37060896
26	0xbf51df15	-0.8198102
27	0x3e3a1cfe	0.18175122
28	0xbf0b460b	-0.5440375
29	0x3d8493ca	0.06473501
30	0x3eef6a74	0.46760905
31	0x3ec02f8a	0.3753627

gatencoder.gat_net.layer_stack.1.a_dst f4 [1, 32, 1]
0	0x3e3e4606	0.185814
1	0x3eb7a152	0.35865265
2	0xbecc9688	-0.39958596
3	0xbee7726c	-0.45204484
4	0x3eb5cba7	0.35506937
5	0x3f46702b	0.77514905
6	0xbe6c7cc6	-0.23094472
7	0x3e3cfe0d	0.18456288
8	0x3e2b7de5	0.16747244
9	0x3db9f724	0.090803415
10	0x3cc75d6e	0.024336543
11	0xbdaa5bca	-0.083182886
12	0xbee0ab7a	-0.43880826
13	0xbe570461	-0.20997764
14	0xbe40dc46	-0.18834028
15	0xbedfebf7	-0.43734714
16	0xbf0611a6	-0.5237068
17	0xbe976300	-0.29567719
18	0xbee23b79	-0.44186
19	0x3d2b00b9	0.041748736
20	0xbe26d7db	-0.1629328
21	0x3ddde62b	0.10834917
22	0xbe55c7af	-0.20876954
23	0x3d39da92	0.04537446
24	0x3ee80e94	0.45323622
25	0x3eb8aac2	0.36067778
26	0xbe8af608	-0.27140832
27	0x3f039c55	0.5141042
28	0x3ead0a80	0.33797073
29	0xbee31df1	-0.4435878
30	0x3f059aba	0.5218922
31	0xbed1477a	-0.40874845

gatencoder.gat_net.layer_stack.1.bias f4 [32]
0	0xbdd773c5	-0.10520128
1	0xbdd32571	-0.10309876
2	0x3c00a5a3	0.007851991
3	0xbae8b02c	-0.0017752699
4	0x3d0adeb9	0.03390381
5	0x3db74773	0.08949175
6	0x3e08cea9	0.13360085
7	0xbc19124b	-0.00934274
8	0x3e4d31a6	0.2003847
9	0x3c14ed2d	0.00908975
10	0x3d26fc40	0.040767908
11	0xbd71af50	-0.05900508
12	0xbdb712a2	-0.08939101
13	0xbe297caa	-0.16551462
14	0x3df47483	0.11936285
15	0xbe01c753	-0.12673692
16	0xbe9109f2	-0.283279
17	0xbe635d98	-0.22203672
18	0x3ccd91a2	0.025093857
19	0x3e3fdd2d	0.18736716
20	0x3e296df3	0.16545849
21	0xbe00f1f4	-0.12592298
22	0x3e6a4618	0.22878301
23	0x3cb985f2	0.022646878
24	0x3e885dd2	0.2663408
25	0x3c9a577c	0.018840544
26	0xbe4f13ea	-0.2022244
27	0x3e95225d	0.2912778
28	0x3d7ba257	0.061434116
29	0xbe16cfe6	-0.14727744
30	0xbc4a1362	-0.012333723
31	0x3e246cc1	0.16057111

traj_lstm_model.weight_ih f4 [128, 2]
0	0xbeba5919	-0.363961
1	0xbe29f421	-0.16597034
2	0x4005143d	2.0793602
3	0x40012863	2.01809
4	0xbf5650ab	-0.8371684
5	0xbf457b77	-0.7714152
6	0x400d3186	2.2061477
7	0x3fbada28	1.4597826
8	0x3f9bd898	1.2175474
9	0x3f22cc37	0.6359286
10	0xbe6221fc	-0.22083277
11	0xbe827c32	-0.25485379
12	0x405dec44	3.4675455
13	0xc0599e74	-3.4002962
14	0x3ec5c60a	0.38627654
15	0xbe939d73	-0.28831062
16	0x3e9c66c5	0.30547157
17	0xbf72d46f	-0.948554
18	0x3fdbace0	1.7162132
19	0xc00c1b1d	-2.1891549
20	0xbf2c6c6c	-0.6735294
21	0xbee821a6	-0.45338172
22	0xbffe51a7	-1.9868668
23	0xc00208af	-2.03178
24	0x3fa10757	1.2580365
25	0xbf88154d	-1.06315
26	0x40031326	2.0480437
27	0x3f86ace0	1.0521507
28	0xbdb0827b	-0.08618637
29	0xbfda8b19	-1.7073699
30	0x40713d9c	3.7693853
31	0x3fef46ae	1.8693445
32	0x4038b7c1	2.8862154
33	0xbfa35d79	-1.27629
34	0xbff453db	-1.9088091
35	0xbf133b46	-0.5751232
36	0x3f777b5f	0.96672624
37	0xbfd5dd0a	-1.6708081
38	0x3fefdb43	1.8738788
39	0xbf896e61	-1.073681
40	0xbf8413ed	-1.0318581
41	0xbfb8d7ec	-1.4440894
42	0xbe3f3488	-0.18672383
43	0xbf09797e	-0.5370101
44	0x3ee88c64	0.4541961
45	0x3e5e54d9	0.21712054
46	0x3eee2fd6	0.4652087
47	0xbe2b01d0	-0.1669991
48	0xbfafda1a	-1.3738434
49	0xbfd78fef	-1.68408
50	0x3fec2a87	1.8450478
51	0xbf539f98	-0.82665396
52	0x40110261	2.2657702
53	0x3fec6e4b	1.8471159
54	0x3fa8b0f0	1.3178997
55	0xbe91a532	-0.28446347
56	0x3fc15a8a	1.5105755
57	0x3f5791c2	0.84206784
58	0x4016a8f8	2.354063
59	0xbe0811a8	-0.13287985
60	0x408c048e	4.375556
61	0xc006be6a	-2.105372
62	0x3f623dd0	0.8837557
63	0x3f17ec7a	0.5934521
64	0xbdc2cb84	-0.09511474
65	0xbc318c44	-0.010836665
66	0x3fc748d8	1.5569105
67	0x3fd22f8d	1.6420761
68	0xbe4b9a32	-0.1988304
69	0xbf03bc74	-0.5145943
70	0x3f8e24ee	1.110502
71	0x3f547ed6	0.83006036
72	0x3f60d7aa	0.8782908
73	0x3f119278	0.5686412
74	0xbf14dc0a	-0.5814825
75	0xbecdca16	-0.40193242
76	0x3fbcb854	1.4743752
77	0xbfc7a56f	-1.5597361
78	0x3d93c3f8	0.072151124
79	0xbe9ce85b	-0.30646023
80	0xbbf11ba9	-0.0073580337
81	0xbf7e5e49	-0.9936262
82	0x3e8480f7	0.25879642
83	0xbf99efc4	-1.2026296
84	0xbdd11652	-0.102093354
85	0xbea5a4e4	-0.32352364
86	0xbf8f12b3	-1.1177582
87	0xbf958014	-1.1679711
88	0x3ee66452	0.44998413
89	0xbe4bdd58	-0.19908655
90	0x3ff2ccbc	1.896873
91	0x3fa3d3ed	1.279905
92	0xbec079f5	-0.37593046
93	0xbf312003	-0.6918947
94	0x406f345b	3.7375705
95	0x402b4a46	2.6764083
96	0x3f902817	1.1262234
97	0xbde331f2	-0.11093511
98	0xbf9c2913	-1.2200035
99	0xbf8ad0bd	-1.0844952
100	0x3e91caaf	0.28474948
101	0xbf88bbed	-1.068235
102	0x3ef39252	0.4757257
103	0xbf187449	-0.5955244
104	0xbf2e4c21	-0.68084913
105	0xbf7516a6	-0.95737684
106	0xbd73b5bd	-0.05949949
107	0xbed7ced1	-0.42149976
108	0x3f000da8	0.5002084
109	0x3eccd416	0.4000556
110	0xbeef9610	-0.46794176
111	0xbee3c12f	-0.44483325
112	0xbfb04d5c	-1.3773608
113	0xbfb27038	-1.3940496
114	0x3f7997a0	0.97496986
115	0xbe2d6c56	-0.16935858
116	0x403a3cc2	2.9099584
117	0x40302323	2.7521446
118	0x3f1d0b53	0.61345404
119	0xbe9804f7	-0.29691288
120	0x3f8b70e5	1.0893828
121	0x3f1a7ce7	0.60346836
122	0x3d51101a	0.051040746
123	0xbfb5e259	-1.4209701
124	0x40077046	2.1162276
125	0x3e229de6	0.15880546
126	0x3e8be558	0.27323413
127	0x3edd4a72	0.4322086
128	0x3e540b67	0.20707475
129	0x3eb17088	0.34656167
130	0xc0101917	-2.2515314
131	0xc000f88e	-2.0151706
132	0x3f1e0ffd	0.61743146
133	0x3f719f2c	0.943835
134	0x402ffae7	2.7496889
135	0x40077347	2.116411
136	0x3f98ba11	1.1931783
137	0x3fb9130a	1.4458935
138	0x3ed1a1f1	0.40943864
139	0x3d8a7441	0.06760455
140	0x3f551e15	0.83249027
141	0xbf2eeff6	-0.683349
142	0x3f1d1d88	0.61373186
143	0xbe36051b	-0.17775385
144	0xbd6b3592	-0.057424136
145	0x3fa951a2	1.3228037
146	0x3f2b2585	0.66854125
147	0xbf8fe2f1	-1.1241132
148	0x3ed2dbb6	0.4118325
149	0x3d3a15fb	0.04543112
150	0xbfd04c24	-1.6273236
151	0xbff27dbb	-1.894462
152	0x3fae351d	1.3609959
153	0xbe71c605	-0.23610695
154	0x4066d0e2	3.6064992
155	0x40226078	2.537138
156	0xbf691c18	-0.9105849
157	0xbfd69a52	-1.6765845
158	0x405234cf	3.2844732
159	0x4008fbc9	2.1403677
160	0xbfeed54f	-1.8658847
161	0x3eb2ccf8	0.34922004
162	0xc0085b5c	-2.1305761
163	0xbfb4621b	-1.409244
164	0x3f10c060	0.5654354
165	0xbf9a907c	-1.2075343
166	0x3f7d967c	0.99057746
167	0xbe151957	-0.14560448
168	0xbf587734	-0.8455689
169	0xbf709133	-0.93971556
170	0x3fa39beb	1.2781957
171	0x3f4ff394	0.81231046
172	0x3f659f57	0.8969626
173	0x3f33de5c	0.7026117
174	0xbe80b80f	-0.25140426
175	0xbefca2c3	-0.49342927
176	0x4029e9f5	2.6549046
177	0x404696d0	3.1029549
178	0xbfc1b49c	-1.5133243
179	0x3d895263	0.06705167
180	0x404348c5	3.0513165
181	0x40385f95	2.8808339
182	0x3f820a4f	1.0159396
183	0xbe87357c	-0.26407993
184	0xc00d85c7	-2.2112901
185	0xbfb7ee20	-1.4369545
186	0xbef8c5f0	-0.48588514
187	0x40b8d2c7	5.7757297
188	0xc02d60a9	-2.7090247
189	0x3f7bb54c	0.9832351
190	0x3ff07af9	1.8787528
191	0x3fa36ca5	1.2767531
192	0xbf8f69df	-1.1204184
193	0xbf1e87f5	-0.61926204
194	0x402b12a4	2.6730127
195	0x402848bc	2.6294394
196	0xbfc6f397	-1.5543088
197	0xbfbcdc17	-1.4754666
198	0x402cc9c8	2.6998158
199	0x3ff814b3	1.9381317
200	0x3fc090e4	1.5044217
201	0x3f8cf609	1.1012584
202	0xbee5cad6	-0.44881314
203	0xbed51e72	-0.4162479
204	0x4094da88	4.651676
205	0xc095ec3e	-4.685088
206	0x3f046c99	0.51728207
207	0xbedacafa	-0.42732984
208	0x3f56d700	0.83921814
209	0xbfe46618	-1.7843657
210	0x402e52aa	2.7237954
211	0xc05fa758	-3.4945889
212	0xbfaf1c6d	-1.368055
213	0xbf8df672	-1.1090834
214	0xc02f2b58	-2.7370205
215	0xc02a2711	-2.6586344
216	0x3fe29574	1.770186
217	0xbfd17536	-1.6363895
218	0x403f69c3	2.9908302
219	0x3f8bcfaa	1.0922749
220	0x3e0c4e0f	0.13701652
221	0xc01efa01	-2.484009
222	0x409a02ab	4.8128257
223	0x4012e7ae	2.2953906
224	0x406a2c62	3.658959
225	0xbfec44b9	-1.8458472
226	0xc023026f	-2.5470235
227	0xbfc802f1	-1.5625898
228	0x3ffcbb88	1.974473
229	0xc025f7ac	-2.5932417
230	0x3ff1b999	1.8884765
231	0xc00f636b	-2.240443
232	0xbfb1e5f7	-1.3898305
233	0xbff33d9c	-1.9003177
234	0x3dc36ed7	0.095426254
235	0xbedc76fa	-0.43059522
236	0x3f971c5b	1.1805528
237	0x3f67943b	0.90460557
238	0xbe8118d5	-0.25214258
239	0xbf4382fb	-0.76371735
240	0xc00617aa	-2.0951943
241	0xc0296d03	-2.6472785
242	0x400a6a93	2.1627548
243	0xbf80cc38	-1.0062323
244	0x4062045f	3.5315168
245	0x4014df52	2.3261304
246	0x3fccbee5	1.5995756
247	0xbf04a8af	-0.5181989
248	0x401d3587	2.456392
249	0x3f88ea6a	1.0696537
250	0x403eaf56	2.9794517
251	0xbf8b2812	-1.0871603
252	0x40c18e86	6.048648
253	0xc0606591	-3.5061991
254	0x3fd53f01	1.6659852
255	0x3fbdc39f	1.4825324

traj_lstm_model.weight_hh f4 [128, 32]
0	0x3d2c161e	0.04201328
1	0x3ef5eec2	0.4803372
2	0x3eada50c	0.33914983
3	0xbd882734	-0.066481024
4	0xbeffcc22	-0.49960428
5	0x3e8f6cdb	0.28012738
6	0xbea78b72	-0.32723576
7	0xbc1b4513	-0.009476918
8	0xbe1af9cd	-0.15134354
9	0x3e9ad151	0.3023782
10	0x3d98e88f	0.07466232
11	0x3d42f78d	0.047599364
12	0xbf5911df	-0.84792894
13	0xbee2b4f1	-0.44278672
14	0xbcf80e2b	-0.030280193
15	0xbde9a3b3	-0.11408176
16	0x3d7edf87	0.06222489
17	0xbe8db7af	-0.27679202
18	0xbf03fc85	-0.5155719
19	0xbed17da3	-0.40916166
20	0x3ea35fee	0.31909126
21	0x3c5eb5e7	0.013593174
22	0xbd67948d	-0.056538153
23	0x3dadf991	0.08494867
24	0x3ec6fd17	0.38864967
25	0x3c62163d	0.013799247
26	0xbeefa3f9	-0.4680479
27	0xbe42bb70	-0.19016814
28	0x3eb9b263	0.3626891
29	0x3eb29523	0.34879407
30	0x3e7d0e46	0.24712476
31	0xbdd12492	-0.10212053
32	0xbd944401	-0.07239533
33	0xbd73e2e3	-0.059542548
34	0x3debc71c	0.115125865
35	0x3e7ec391	0.2487929
36	0x3e433727	0.19064008
37	0xbdc999d8	-0.098437965
38	0xbe67bc17	-0.22630344
39	0x3cdac033	0.026702976
40	0xbe8ed13e	-0.27894014
41	0x3ea14764	0.3149978
42	0xbe5c8034	-0.2153328
43	0xbe71360f	-0.23555778
44	0x3e4c1cf3	0.19932918
45	0x3ebb67cf	0.36602637
46	0x3e34abb7	0.17643629
47	0x3bcbad08	0.0062156953
48	0xbc9906b4	-0.018679954
49	0xbd44a0fd	-0.048005093
50	0x3d37d8c0	0.044884443
51	0x3dec0ab8	0.11525482
52	0xbc90da75	-0.017682293
53	0x3d316827	0.043312218
54	0x3ec25a54	0.3795954
55	0x3e6a619c	0.22888798
56	0xbf0f552f	-0.55989355
57	0xbe8e3083	-0.27771387
58	0x3e89d493	0.26919994
59	0x3e7fb55f	0.24971531
60	0xbd7b0e92	-0.061293192
61	0xbd2a97c6	-0.04164865
62	0xbe2b1cb8	-0.16710174
63	0x3ea88689	0.32915142
64	0x3da31dd0	0.07964671
65	0x3efaebb7	0.4900796
66	0x3ec99f4c	0.39379346
67	0xbe67a31f	-0.2262082
68	0x3e1d23f4	0.15345746
69	0x3e931768	0.28728795
70	0x3e0bbc44	0.13646036
71	0xbda52d12	-0.08065237
72	0xbf013ad5	-0.50480396
73	0xbb2a0d6a	-0.0025947937
74	0x3e64566d	0.22298594
75	0x3eec6ddc	0.46177566
76	0x3dfe8eb1	0.1242956
77	0xbedc2005	-0.4299318
78	0xbe0142bd	-0.12623115
79	0xba9ee273	-0.001212193
80	0x3f41f5e3	0.7576582
81	0xbc8d415a	-0.017243076
82	0xbd7f7a26	-0.06237235
83	0x3c7c4d2a	0.015399257
84	0x3ec2567f	0.37956616
85	0x3edfecf2	0.43735462
86	0xbd45c1e7	-0.048280623
87	0xbe9cac1f	-0.30600068
88	0xbe9d5995	-0.30732408
89	0x3e6ee0d3	0.23327951
90	0xbde40f8e	-0.11135779
91	0x3e0f0987	0.13968478
92	0xbf0fe728	-0.5621209
93	0xbdce260a	-0.10065849
94	0xbe8120bd	-0.2522029
95	0x3da6d5ad	0.08146224
96	0xbebefc99	-0.37302092
97	0xbe2911b9	-0.16510667
98	0xbd3d000a	-0.046142615
99	0x3dc585b2	0.09644641
100	0x3edf1c23	0.43576154
101	0x3ee3db57	0.4450328
102	0xbda4af81	-0.08041287
103	0xbd88e4bf	-0.06684255
104	0xbe8c5655	-0.27409616
105	0x3e8216cb	0.25408015
106	0x3e5f5853	0.21811037
107	0xbec0efb3	-0.37682876
108	0xbca700fb	-0.02038621
109	0x3da63b1d	0.08116744
110	0x3e51412f	0.20435022
111	0xbe9f8139	-0.31153277
112	0xbe4127ad	-0.18862791
113	0x3d47eede	0.048811786
114	0xbe30d5ea	-0.17269102
115	0xbd10cb58	-0.035350174
116	0x3d00210b	0.031281512
117	0xbd5516aa	-0.052023567
118	0x3c927227	0.017876698
119	0x3e909351	0.28237393
120	0xbf301e87	-0.6879658
121	0xbe8b42f1	-0.2719951
122	0xbe3405fc	-0.17580408
123	0x3e2be3a6	0.1678606
124	0xbed2d389	-0.41177014
125	0xbebe3d0c	-0.3715595
126	0xbed0c0b3	-0.40772018
127	0xbd359ea5	-0.04434075
128	0xbe0b1483	-0.13582043
129	0x3e22eb12	0.15909985
130	0x3e857d9b	0.26072392
131	0xbe8cebd2	-0.27523667
132	0xbcdd107c	-0.0269854
133	0x3e2edf1f	0.17077301
134	0x3dc71325	0.097204484
135	0x3d9658d3	0.073411606
136	0xbe780b57	-0.24223076
137	0x3e8297f6	0.25506562
138	0xbd835481	-0.06412602
139	0xbd7e1578	-0.062032193
140	0xbde6bc75	-0.11266414
141	0xbf0829ce	-0.5318879
142	0x3d41572d	0.047202278
143	0x3e3dc29b	0.18531267
144	0xbe15fa3a	-0.14646235
145	0x3e6db38b	0.23213021
146	0xbded2e20	-0.11581063
147	0x3d0cafaa	0.034347214
148	0xbd631c5f	-0.05544698
149	0x3e7bc6b2	0.24587515
150	0x3da06013	0.07830825
151	0x3d8540dc	0.065065116
152	0x3d09711c	0.033555135
153	0x3e0ecf3c	0.13946241
154	0xbe63a806	-0.22232065
155	0xbd6584ad	-0.056034733
156	0x3dbf9930	0.0935539
157	0x3ed3f966	0.41401213
158	0x3c110ff4	0.008853901
159	0x3e1774b1	0.14790608
160	0xbdc68dea	-0.09695037
161	0x3e844333	0.2583252
162	0x3e6a7774	0.2289713
163	0xbde41a04	-0.111377746
164	0xbea70a05	-0.32624832
165	0x3d803e36	0.06261866
166	0x3e304a4e	0.17215845
167	0x3e9efec2	0.3105374
168	0x3ef3e226	0.47633475
169	0xb9e9b909	-0.00044579085
170	0xbdc0ec26	-0.09420042
171	0x3eb95220	0.3619547
172	0xbe37676d	-0.17910548
173	0xbea55ea2	-0.32298762
174	0xbe05e30d	-0.13074894
175	0xbdc56dae	-0.0964006
176	0xbe2d891f	-0.16946839
177	0xbdf25428	-0.11832458
178	0x3dcb49cb	0.09926184
179	0xbcba0dd4	-0.022711672
180	0xbe0ab456	-0.13545355
181	0xbe15260d	-0.14565296
182	0xbec0387c	-0.37543094
183	0xbdb5ef38	-0.08883518
184	0xba5ea06b	-0.0008492532
185	0x3e3b16bf	0.18270396
186	0xbe23643d	-0.15956207
187	0x3e55afdc	0.20867866
188	0x3e13681b	0.14395182
189	0xbdfdc57b	-0.12391182
190	0x3ec9357d	0.3929862
191	0x3e1bdcbe	0.15220925
192	0x3db3b108	0.087740004
193	0xbecdcc1f	-0.40194795
194	0x3e624589	0.22096838
195	0x3e9f41cd	0.3110489
196	0x3e9ef0a5	0.31042972
197	0x3e0c9e18	0.13732183
198	0x3ed40865	0.41412655
199	0xbed5926f	-0.41713282
200	0xbdc5045b	-0.09619971
201	0xbe38f04f	-0.1806042
202	0x3ed5ddc4	0.41770756
203	0xbe44e74a	-0.19228855
204	0x3ef36789	0.4753993
205	0x3ed976c1	0.42473415
206	0xbdc12f51	-0.09432853
207	0x3eb29faf	0.34887454
208	0xbe996688	-0.29961038
209	0xbee81b95	-0.45333543
210	0xbd377177	-0.044785943
211	0xbe0cfddc	-0.13768715
212	0xbf15f99f	-0.58584017
213	0x3ebcc905	0.36872116
214	0x3e711d5e	0.23546359
215	0xbea0d72e	-0.3141417
216	0xbe83dd56	-0.25754803
217	0xbe6473ce	-0.22309801
218	0x3ec5cd70	0.386333
219	0x3e034857	0.12820564
220	0xbebcd5ab	-0.36881766
221	0x3e4857d9	0.19564761
222	0xbe585ae3	-0.2112842
223	0x3eb265ab	0.34843192
224	0x3cbde140	0.023178697
225	0x3f1b5dd0	0.6069002
226	0x3e44e13c	0.19226545
227	0xbe7ebf64	-0.24877697
228	0xbed2ef07	-0.41197988
229	0x3da07e2a	0.07836564
230	0xbecbfe9b	-0.39842686
231	0x3ea6839e	0.3252229
232	0x3eb4011f	0.35157105
233	0xbcf5db34	-0.03001175
234	0x3e8153f3	0.2525936
235	0x3e95aa98	0.29231715
236	0xbebbe7e2	-0.3670035
237	0xbf04aed6	-0.5182928
238	0x3ea5412f	0.32276294
239	0xbdfc6cf2	-0.12325467
240	0xbed3366d	-0.4125246
241	0xbea18c65	-0.31552425
242	0xbe180c70	-0.14848495
243	0xbeb67fba	-0.35644323
244	0x3f0bf69a	0.5467316
245	0xbe6faf13	-0.2340663
246	0xbf0b06d5	-0.543073
247	0xbe95129a	-0.29115754
248	0x3cf967eb	0.03044506
249	0xbee1ab26	-0.44075888
250	0xbd9262c8	-0.07147747
251	0x3dd219ad	0.102588035
252	0x3e571faa	0.21008173
253	0xbe3f14b2	-0.18660238
254	0x3e1fce61	0.15606071
255	0xbea44c3a	-0.32089406

traj_lstm_model.bias_ih f4 [128]
0	0xbdeb9b73	-0.11504259
1	0x3e8ccf65	0.2750198
2	0x3ece62a4	0.40309632
3	0x3f221623	0.6331503
4	0xbdadd305	-0.084875144
5	0x3e5c5f47	0.2152072
6	0xbe9bf7a6	-0.30462378
7	0x3e6ee089	0.23327841
8	0xbe426741	-0.189847
9	0xbdf4caf8	-0.11952776
10	0x3d81da59	0.06340475
11	0x3d1cd3e3	0.03828801
12	0x3e28da90	0.16489625
13	0x3f60907f	0.87720484
14	0xbe7985c5	-0.24367435
15	0x3f51282a	0.8170191
16	0x3e468f07	0.19390498
17	0x3f5ca557	0.8618979
18	0xbe12d37d	-0.14338489
19	0x3ee7ba60	0.4525938
20	0x3e4c1887	0.19931231
21	0xbe8dfc1b	-0.27731404
22	0xbeca3bc4	-0.39498723
23	0x3e741a8c	0.23838252
24	0x3f1e9a63	0.61954325
25	0x3e41239d	0.18861242
26	0x3f660832	0.89856255
27	0x3dd946d6	0.10609214
28	0x3db56bd3	0.088584565
29	0x3f975731	1.1823484
30	0x3f0c0e36	0.54709184
31	0x3f0688f0	0.525527
32	0xbfdacc69	-1.7093631
33	0xbfd3d4dc	-1.6549335
34	0xc0241552	-2.5638013
35	0xbff6c1bf	-1.9277877
36	0xbfd5348c	-1.6656661
37	0xbfbe3e20	-1.4862709
38	0xbfe314cc	-1.7740722
39	0xbfa42589	-1.2823955
40	0xbf97ed42	-1.186928
41	0xbfa0a385	-1.2549902
42	0xbfeaf21a	-1.8355134
43	0xbfdd0b4a	-1.726907
44	0xbfb49d9c	-1.4110599
45	0xbfd21ea9	-1.6415607
46	0xbfe203b6	-1.7657382
47	0xbfb771b4	-1.4331574
48	0xbff364b4	-1.9015107
49	0xc025f5f0	-2.5931358
50	0xbfb3198b	-1.399217
51	0xc0016630	-2.021862
52	0xbfd43aba	-1.6580422
53	0xbf8030ae	-1.0014856
54	0xbfc31384	-1.5240331
55	0xc00dd223	-2.2159507
56	0xbffe13fa	-1.9849846
57	0xbf93c402	-1.1544192
58	0xbfddd0d2	-1.7329352
59	0xbf6c2f5a	-0.9225975
60	0xbfbdb773	-1.4821609
61	0xc03979b7	-2.898054
62	0xc0028581	-2.0393984
63	0xbff4a8a0	-1.911396
64	0x3e351f69	0.17687763
65	0xbe453f6a	-0.19262472
66	0xbeb940a4	-0.3618213
67	0x3e097d47	0.13426696
68	0xbd348470	-0.044071615
69	0xbe96b3b4	-0.29433978
70	0xbca92563	-0.02064771
71	0x3e66c4a8	0.22535956
72	0xbcaeeadd	-0.021352226
73	0x3ea77c79	0.32712153
74	0xbe469797	-0.19393764
75	0x3e45de03	0.19322972
76	0xbdd6d40d	-0.10489664
77	0x3e98e0f5	0.2985913
78	0x3d56b2c4	0.052416578
79	0x3ef7560e	0.48307842
80	0x3e09b500	0.13447952
81	0x3d4e7e5b	0.05041347
82	0xbce471bb	-0.027886262
83	0x3ed82a41	0.42219737
84	0x3e2e7ed0	0.17040563
85	0xbe2ec747	-0.17068206
86	0x3d6ad0d7	0.05732807
87	0x3e52f430	0.20600963
88	0xbd01a408	-0.031650573
89	0xbede2b7b	-0.43392548
90	0x3da01c84	0.07817939
91	0x3ecb88e9	0.39752892
92	0xbdc81f67	-0.097716145
93	0xbe08ab54	-0.13346606
94	0xbe1639fe	-0.1467056
95	0x3dce28ec	0.10066399
96	0xbf943fac	-1.1581931
97	0xbe8296d2	-0.25505692
98	0xbf1374a6	-0.57599866
99	0xbe3ee9ca	-0.18643871
100	0xbf4df41a	-0.80450594
101	0xbf5a41d9	-0.85256726
102	0xbf91a23d	-1.1377636
103	0xbf8128b4	-1.0090547
104	0xbf809fe4	-1.0048795
105	0xbfb00132	-1.3750365
106	0xbf62ffbd	-0.88671476
107	0xbf2540b7	-0.6455187
108	0xbfab40c5	-1.3379141
109	0xbe04cb2a	-0.12968126
110	0xbfa5009e	-1.2890813
111	0xbdf58aae	-0.11989342
112	0xbf8ba9ce	-1.0911195
113	0xbceab868	-0.028652385
114	0xbf8167c4	-1.0109792
115	0xbf1820d6	-0.59425104
116	0xbf6e4a76	-0.9308237
117	0xbfa50bf6	-1.2894275
118	0xbf6b478b	-0.9190604
119	0xbf3dc0cf	-0.7412233
120	0xbe8a7384	-0.27041256
121	0xbf1a4b08	-0.6027074
122	0xbdad0236	-0.08447687
123	0xbe128c59	-0.14311351
124	0xbf37f650	-0.7186022
125	0x3f4ea6a4	0.80723023
126	0xbec7ccdc	-0.39023483
127	0xbf2298ac	-0.6351421

traj_lstm_model.bias_hh f4 [128]
0	0xbd5eec84	-0.054424778
1	0x3ee36fa7	0.4442112
2	0x3da3a41a	0.07990284
3	0x3f31a570	0.6939306
4	0xbc99c17d	-0.01876902
5	0xbd8a2360	-0.067450285
6	0xbe908822	-0.2822886
7	0x3e6c9af9	0.23105992
8	0xbe15cc9a	-0.1462883
9	0xbe181113	-0.14850263
10	0x3e7ec87a	0.24881163
11	0xbd52197d	-0.05129384
12	0x3d53379b	0.0515667
13	0x3f330eb0	0.69944286
14	0xbe94dac7	-0.29073164
15	0x3f280cbb	0.65644425
16	0x3e056708	0.13027585
17	0x3f2d8f9d	0.6779726
18	0xbe80945c	-0.2511319
19	0x3e6e19c0	0.2325201
20	0x3d447909	0.04796699
21	0xbe95e7b4	-0.29278338
22	0xbe59e640	-0.2127924
23	0x3e347f89	0.17626776
24	0x3f30728d	0.6892479
25	0x3e830f7c	0.2559775
26	0x3f36d0de	0.71412456
27	0x3ea8f17d	0.3299674
28	0x3de31f74	0.110899836
29	0x3f970cb1	1.1800748
30	0x3f2bc7d0	0.67101765
31	0x3f0f8729	0.56065613
32	0xbfd0c21b	-1.6309236
33	0xbfd05cf2	-1.6278365
34	0xc019fda0	-2.406105
35	0xbfd71b35	-1.6805178
36	0xbfc2b11e	-1.5210302
37	0xbfe12f9c	-1.7592654
38	0xbff915ff	-1.9459838
39	0xbfa16efd	-1.2611996
40	0xbf9e8e68	-1.2387209
41	0xbfc0916d	-1.504438
42	0xbfe616e4	-1.7975736
43	0xbfc8d008	-1.5688486
44	0xbfafeced	-1.3744179
45	0xbfd2dab2	-1.647299
46	0xbfd1f503	-1.6402897
47	0xbfaeb09e	-1.3647649
48	0xbff3fdf1	-1.9061872
49	0xc01e2ee6	-2.4716125
50	0xbf9e059d	-1.2345463
51	0xbfeb47c3	-1.8381275
52	0xbfca05e7	-1.5783051
53	0xbf68fec3	-0.91013736
54	0xbfd1f954	-1.6404214
55	0xc00364f8	-2.0530376
56	0xbfdbf6c1	-1.7184678
57	0xbfa457a1	-1.2839242
58	0xbfc7ba68	-1.5603762
59	0xbf527bf9	-0.8222042
60	0xbfbc52a8	-1.4712725
61	0xc03951f4	-2.895627
62	0xc003c8d1	-2.0591319
63	0xbfe8e1b8	-1.8193884
64	0x3e0d426a	0.13794866
65	0xbe960a8d	-0.29304925
66	0xbe121d8a	-0.14269081
67	0x3dde4881	0.10853673
68	0x3a0b120c	0.00053051184
69	0xbe2e24d4	-0.17006236
70	0xbdaf2c44	-0.08553365
71	0x3e9335a3	0.2875186
72	0x3dcc811e	0.09985565
73	0x3d070451	0.0329631
74	0xbe048579	-0.12941541
75	0x3e201c23	0.15635733
76	0x3d665428	0.0562326
77	0x3c65428d	0.013992918
78	0xbcd5e25b	-0.026108911
79	0x3ed3132d	0.41225567
80	0x3d3efefa	0.046629883
81	0x3e65d8a2	0.2244592
82	0xbcbc8839	-0.023014175
83	0x3dfe29f7	0.12410348
84	0x3db8abd1	0.090171464
85	0xbd959ff7	-0.073059015
86	0xbd96ea39	-0.07368893
87	0x3e1f269b	0.1554207
88	0xbda6986b	-0.0813454
89	0xbed88c04	-0.42294323
90	0x3ea4ec98	0.32211757
91	0x3ec9a45a	0.39383203
92	0xbe0cdd04	-0.13756186
93	0x3de9588e	0.113938436
94	0xbd9b73d0	-0.07590449
95	0x3dcd0026	0.10009794
96	0xbf90d172	-1.1313918
97	0xbe9bb182	-0.30408865
98	0xbf0e390b	-0.5555579
99	0xbe1db959	-0.15402736
100	0xbf59fa3c	-0.8514745
101	0xbf54c51b	-0.8311326
102	0xbfb67c20	-1.425663
103	0xbf84de25	-1.0380293
104	0xbf584e17	-0.84494156
105	0xbfb90a46	-1.445626
106	0xbf786b85	-0.9703906
107	0xbf596328	-0.84916925
108	0xbf99a416	-1.20032
109	0xbe73547c	-0.23762697
110	0xbfa45232	-1.2837584
111	0xbb91e7f3	-0.0044526993
112	0xbf8501e2	-1.03912
113	0xbd6aa0a0	-0.05728209
114	0xbf657e4e	-0.8964585
115	0xbf50741b	-0.8142716
116	0xbf6fdf64	-0.9370024
117	0xbf9ed3e0	-1.2408409
118	0xbf867ccb	-1.0506834
119	0xbf2c8610	-0.67392063
120	0xbebd1313	-0.36928615
121	0xbf27fb27	-0.65617603
122	0xbe4a3f05	-0.19750603
123	0xbeb5cf0f	-0.35509536
124	0xbf0db5d8	-0.55355597
125	0x3f71c268	0.94437265
126	0xbee0e065	-0.439212
127	0xbf61e385	-0.8823779

graph_lstm_model.weight_ih f4 [128, 32]
0	0x3da67795	0.08128277
1	0xbd795cd3	-0.06087954
2	0xbc9194e5	-0.017771194
3	0xbe358794	-0.177275
4	0xbdfd01f1	-0.12353886
5	0x3e18bc7d	0.14915653
6	0xba2d411d	-0.0006609129
7	0x3e38e08c	0.18054408
8	0xbe55ea67	-0.20890199
9	0xbdf892d6	-0.12137382
10	0x3cbbc9e9	0.022923427
11	0xbdadd4cd	-0.08487854
12	0xbe4010e1	-0.18756439
13	0x3df563a3	0.11981895
14	0x3e100e5f	0.14067982
15	0xbd8d80c2	-0.06909324
16	0xbe430db6	-0.19048199
17	0x3d93d559	0.07218427
18	0x3deb8bdc	0.115012854
19	0xbe31c66e	-0.17360851
20	0xbded6254	-0.1159102
21	0x3e1b13b8	0.15144241
22	0x3dffd457	0.124916725
23	0x3e473479	0.1945361
24	0xbd87c0fa	-0.06628604
25	0xbda2e8e7	-0.07954579
26	0xbe4924fb	-0.19643013
27	0x3e55c12d	0.20874472
28	0xbdbba55d	-0.091624
29	0xbdcc957a	-0.09989448
30	0x3c06c176	0.008224836
31	0xbe05c7b3	-0.1306446
32	0x3e459201	0.19293977
33	0x3b3e5d90	0.0029047467
34	0x3d5988ac	0.053108856
35	0x3c0bdcac	0.008536499
36	0x3e0c5916	0.13705859
37	0x3de4e77b	0.11176964
38	0xbd8ea9ff	-0.06966018
39	0xbe344c6d	-0.17607279
40	0x3b70f435	0.0036766652
41	0xbdde3da7	-0.10851603
42	0x3d96034c	0.073248476
43	0x3e3fa1db	0.18714087
44	0xbd6b2ffa	-0.0574188
45	0x3de9c954	0.114153534
46	0xbd884858	-0.066544235
47	0x3da1dc48	0.079033434
48	0x3ade1ac6	0.0016945235
49	0xbd8a6f57	-0.06759518
50	0xbd95ebcf	-0.073203675
51	0x3e2abb7a	0.16673079
52	0xbdc37405	-0.09543613
53	0x3e27e0e3	0.16394381
54	0xbe0c8c3e	-0.13725373
55	0xbe1eb91b	-0.155003
56	0xbdde0b55	-0.10842005
57	0x3e055d5d	0.13023897
58	0xbe1d4862	-0.15359643
59	0x3e168194	0.14697868
60	0xbdde41b9	-0.10852379
61	0x3e04ab38	0.1295594
62	0xbd25020b	-0.04028515
63	0xbe389d44	-0.18028742
64	0x3d5473c5	0.05186822
65	0x3dc80a3d	0.09767578
66	0x3dfb5420	0.12271905
67	0xbe1a927b	-0.1509494
68	0x3ddb347b	0.10703369
69	0xbe0c3bd0	-0.13694692
70	0x3d2c4613	0.042059015
71	0xbd13f253	-0.03611977
72	0xbc73a5a3	-0.014871034
73	0xbe1da648	-0.15395463
74	0xbe640662	-0.2226806
75	0xbcc2b2ec	-0.023766957
76	0xbd8eb4a8	-0.06968051
77	0xbd61184d	-0.054954816
78	0xbd934ab4	-0.07191983
79	0xbd48ca33	-0.049020957
80	0x3e0871a5	0.13324602
81	0x3d9cbc59	0.07653112
82	0xbdf7972d	-0.12089381
83	0xbcf0d6fb	-0.029399386
84	0xbd80b67d	-0.06284807
85	0x3cad5160	0.021156967
86	0x3d3cdb30	0.04610747
87	0x3e47b056	0.1950086
88	0x3d9c77a0	0.07640004
89	0xbdb2010f	-0.08691608
90	0xbd3559e6	-0.044275187
91	0x3e498200	0.19678497
92	0xbd74b052	-0.059738465
93	0xbe1b4e03	-0.15166478
94	0x3e5059fc	0.20346826
95	0xbe53ba2e	-0.2067649
96	0x3d2b3ad1	0.04180414
97	0x3dc76f9e	0.09738086
98	0x3e01013f	0.12598132
99	0xbdbfdfa6	-0.093688294
100	0xbe0ff84a	-0.14059559
101	0xbe1187ed	-0.14212008
102	0xbdbf0d0b	-0.093286596
103	0xbe3488df	-0.17630337
104	0x3dac9e4d	0.08428631
105	0xbddb7de7	-0.10717373
106	0x3e0ba0b0	0.13635516
107	0xbdfd4c8a	-0.12368114
108	0x3d4b690a	0.04966072
109	0xbd96e15e	-0.07367204
110	0x3d18c59a	0.037297823
111	0xbd2a9cea	-0.04165355
112	0xbd3b051a	-0.045659162
113	0x3df6e147	0.12054687
114	0xbde203eb	-0.110359035
115	0xbd75086c	-0.059822485
116	0xbc847c87	-0.01617266
117	0x3db51ad0	0.08843005
118	0x3dfb6f20	0.12277055
119	0xbc7c7b86	-0.01541031
120	0xbd9bd5d9	-0.076091476
121	0xbe13a8e1	-0.14419891
122	0x3db54912	0.08851828
123	0xbdaec4a3	-0.08533599
124	0x3d94f283	0.07272818
125	0xbcae7a04	-0.021298416
126	0xbd8a2a67	-0.06746369
127	0x3df59648	0.119915545
128	0xbdb1ef86	-0.086882636
129	0xbd2374b7	-0.03990623
130	0xbba58047	-0.0050506922
131	0x3d693eb5	0.056944568
132	0xbe190182	-0.14941981
133	0x3dc78a51	0.09743179
134	0x3da98f01	0.08279229
135	0x3e44d052	0.19220093
136	0xbe09e61b	-0.13466685
137	0x3da524a0	0.08063626
138	0x3dd307d6	0.10304229
139	0xbdfd8d0a	-0.12380417
140	0x3d964a4f	0.07338392
141	0x3df2b6e3	0.11851289
142	0x3c86403c	0.016388051
143	0x3cb61ed8	0.022231504
144	0xbcd02926	-0.025410246
145	0xbc713420	-0.0147219
146	0x3e009ac8	0.12559044
147	0xbcadc2d8	-0.021211073
148	0xbd91c424	-0.07117489
149	0xbdb9e725	-0.090772904
150	0xbd815fbd	-0.06317089
151	0xbe0d6d7a	-0.13811293
152	0xbd7a6865	-0.061134715
153	0xbe1f90df	-0.15582608
154	0x3d182e6c	0.037153646
155	0x3e1a95b7	0.15096174
156	0xbdafb562	-0.08579518
157	0x3df21d2b	0.118219696
158	0x3d21e2ee	0.039523058
159	0xbd6ecd60	-0.05830133
160	0xbe2b5c78	-0.16734493
161	0x3c238fe1	0.009983034
162	0x3e2e09cc	0.16995925
163	0xbb578005	-0.0032882702
164	0xbe1c45b6	-0.15260968
165	0xbdd2ddc9	-0.102962084
166	0xbc471628	-0.012151279
167	0xbdce0dd9	-0.10061235
168	0xbdee4fd0	-0.11636317
169	0x3e3fee39	0.18743218
170	0xbdeb7d5d	-0.114985205
171	0xbd104fd3	-0.035232376
172	0x3e0fdacc	0.14048308
173	0xbadacdb5	-0.0016693386
174	0x3cd2481d	0.025669152
175	0x3de84059	0.11340398
176	0x3d515097	0.051102247
177	0x3e18477a	0.14871016
178	0xbd94ba43	-0.07262089
179	0x3e0fb44b	0.1403362
180	0x3e3cd0e8	0.18439066
181	0xbe3765ad	-0.1790988
182	0xbd365e7a	-0.044523694
183	0xbd9378fe	-0.07200812
184	0x3d90caa1	0.070698984
185	0xbe3a8057	-0.1821302
186	0xbd55f2ce	-0.05223351
187	0xbe3d57bb	-0.18490498
188	0x3d9eb8dd	0.077501036
189	0xbd5cd9e6	-0.05391874
190	0x3d5ddd8c	0.05416636
191	0x3ddfb570	0.10923278
192	0xbdc9534f	-0.09830343
193	0x3e08921a	0.13336983
194	0x3daf6325	0.08563832
195	0x3da9a3b6	0.082831785
196	0xbd8683ab	-0.065680824
197	0xbddccffb	-0.107818566
198	0x3d80389d	0.06260798
199	0x3d1af340	0.037829638
200	0x3c086c97	0.008326671
201	0x3d0dc5c1	0.03461242
202	0xbd277c0d	-0.04088979
203	0x3da178ab	0.07884344
204	0x3dd89f2f	0.10577237
205	0xbd0f340a	-0.034961738
206	0x3d2af49a	0.041737176
207	0xbb90b7fd	-0.0044164644
208	0xbdb1a11c	-0.08673307
209	0xbe0cbdf9	-0.13744344
210	0x3e2b33df	0.16719006
211	0xbe64939e	-0.22321936
212	0xbd8169cb	-0.063190065
213	0xbe12a3ec	-0.14320344
214	0xbde78856	-0.11305301
215	0xbd36b3c3	-0.044605028
216	0xbdc65acf	-0.09685289
217	0xbdc92135	-0.09820787
218	0xbd19ba35	-0.037531096
219	0x3e056133	0.1302536
220	0x3de717b4	0.11283818
221	0xbbc96c32	-0.006146931
222	0x3dc3d063	0.09561231
223	0x3e0f4607	0.13991557
224	0xbdc8f873	-0.09813013
225	0x3dad42f8	0.08460039
226	0xbe0a0e8a	-0.13482109
227	0x3d225155	0.039628346
228	0x3e1f9ab2	0.15586355
229	0x3caa471b	0.020785859
230	0x3df35080	0.118805885
231	0xbd566f24	-0.052352086
232	0x3c8634ce	0.016382601
233	0xbdddbf4e	-0.10827504
234	0xbbca4074	-0.006172234
235	0x3ce4976e	0.027904239
236	0xbc2833aa	-0.010266224
237	0xbca8a4e8	-0.020586446
238	0xbdedd857	-0.11613529
239	0xbe432d19	-0.19060172
240	0x3e0047ae	0.12527344
241	0xbe097f4e	-0.13427469
242	0x3de07825	0.10960416
243	0xbc5d0245	-0.013489311
244	0xbdd0faf8	-0.102041185
245	0x3e1e2711	0.1544459
246	0xbd8b5a91	-0.068043835
247	0xbe26a47e	-0.16273686
248	0xbdb42e16	-0.08797853
249	0x3dc3bd73	0.09557619
250	0xbe503e41	-0.20336248
251	0x3e406085	0.1878682
252	0xbcc50da7	-0.024054362
253	0x3de0e09e	0.10980342
254	0x3d62f8d8	0.055413097
255	0xbdffc272	-0.124882594
